model_exports/model.tflite (tflite, 62304 bytes, 11 tensors)

arith.constant f4 [64]
0	0x3eb674f7	0.35636112
1	0xbecdb01b	-0.4017342
2	0x3da84728	0.08216697
3	0xbdc9f653	-0.09861436
4	0x3e0f3952	0.1398671
5	0xbe141f9e	-0.14465186
6	0xbdb3127e	-0.087437615
7	0x3e676bf0	0.22599769
8	0x3e160351	0.14649703
9	0x3efae9eb	0.4900659
10	0x3e9064b9	0.28201845
11	0x3e6ab17e	0.2291927
12	0x3e012fac	0.12615842
13	0x3ec41716	0.38298863
14	0x3ecb60d2	0.39722306
15	0x3dbf7873	0.09349146
16	0x3c955ba1	0.018232169
17	0xbd18cc78	-0.03730437
18	0x3c76dfc2	0.015067996
19	0xbe615c49	-0.2200786
20	0x3ca025b0	0.01954922
21	0xbd9ccc53	-0.07656159
22	0x3daa9285	0.08328728
23	0xbdf8e216	-0.121524975
24	0xbdb1fc89	-0.086907454
25	0x3ebca25a	0.36842614
26	0xbdfd97ce	-0.1238247
27	0x3e355133	0.17706756
28	0x3c6ada7c	0.014334317
29	0xbb1aebe8	-0.0023639146
30	0x3e7f9646	0.24959669
31	0xbde8466b	-0.11341556
32	0x3d610bd1	0.05494291
33	0x3df96f22	0.121794
34	0x3c76ce30	0.015063807
35	0x3d324e95	0.043531973
36	0x3dafe68d	0.08588896
37	0x3e300315	0.17188676
38	0x3e3b8518	0.1831249
39	0x3ebf4822	0.3735972
40	0xbda8ecbe	-0.0824828
41	0x3e8b7374	0.2723652
42	0xbdc495b0	-0.09598863
43	0x3f69aa15	0.9127515
44	0x3c598d1d	0.013278273
45	0x3eb01525	0.34391132
46	0x3e35f1cb	0.17768018
47	0xbbd3954f	-0.006457008
48	0x3dce2e69	0.10067446
49	0xbdf9bac7	-0.12193828
50	0xbdcc21fe	-0.09967421
51	0x3bf86088	0.007579867
52	0x3f021f94	0.50829434
53	0x3e796d2a	0.24358049
54	0x3f146d1f	0.57979006
55	0xbbc5292c	-0.006016871
56	0xbee39404	-0.44448864
57	0xbd0efeb2	-0.034910865
58	0x3dd9cd09	0.106348105
59	0x3e85b55a	0.26114923
60	0xbdb54ec9	-0.08852918
61	0x3e6cd34c	0.23127478
62	0xbdd8cc72	-0.1058587
63	0x3ea23c74	0.31686747

arith.constant1 f4 [4]
0	0x3eb7d6f8	0.35906196
1	0x3dbe408b	0.09289654
2	0xbddd4d6e	-0.10805784
3	0xbdfe9ba0	-0.12432027

arith.constant2 f4 [16, 3, 3, 16]
0	0xbd95b7c3	-0.073104404
1	0x3ea7a56c	0.32743394
2	0x3e3c85c1	0.18410398
3	0xbe4813f6	-0.19538864
4	0x3d55d231	0.052202407
5	0xbd4d8617	-0.050176706
6	0xbdba985b	-0.09111091
7	0x3cbe9e82	0.023268942
8	0x3da42f88	0.08016878
9	0xbdbb9736	-0.091597006
10	0x3e18b254	0.14911777
11	0xbdc95af7	-0.09831803
12	0x3e359e6f	0.17736219
13	0x3e0ab112	0.1354411
14	0xbce059a0	-0.027386487
15	0xbebd2070	-0.3693881
16	0xbb2281fb	-0.0024796713
17	0x3e8333b6	0.2562539
18	0x3e2eb63e	0.17061707
19	0x3cb1dcac	0.02171167
20	0xbdabb39c	-0.08383867
21	0x3d302a13	0.043008875
22	0x3db34d0d	0.08754931
23	0xbce85b6e	-0.02836391
24	0x3da5747a	0.08078857
25	0x3db68f27	0.08914023
26	0x3de7304d	0.112885095
27	0x3d71b6bc	0.05901216
28	0xbdd83aca	-0.10558088
29	0x3e9318fc	0.2873
30	0xbdc9ba14	-0.09849945
31	0xbd1a88b6	-0.037728034
32	0x3d2ad092	0.041702814
33	0x3f094c4a	0.5363203
34	0xbe251b6f	-0.16123746
35	0x3d878f03	0.06619074
36	0xbe486b84	-0.19572264
37	0x3e2e2fe5	0.17010458
38	0x3d85283a	0.06501813
39	0x3c8e72c1	0.017388703
40	0x3e0ecd2b	0.13945453
41	0x3d7d5d6c	0.061856672
42	0x3e4b7035	0.19867022
43	0x3d17b775	0.037040193
44	0x3cda755e	0.026667293
45	0xbc64d020	-0.0139656365
46	0x3e55384d	0.20822258
47	0xbe2e4497	-0.17018352
48	0xbe660955	-0.22464497
49	0x3dc216e6	0.09477024
50	0xbdaf5eeb	-0.08563026
51	0xbdf7bf4d	-0.120970346
52	0xbde2ea50	-0.11079848
53	0x3d1141a7	0.035463
54	0xbd1898ca	-0.037255086
55	0x3e869eaa	0.26292926
56	0x3e0f3749	0.13985933
57	0xbcfc3c4a	-0.030790467
58	0x3dd7fb1c	0.10545942
59	0x3e87c9a7	0.26521036
60	0x3e3d38ca	0.18478695
61	0x3da0ab7d	0.07845209
62	0xbe30be50	-0.17260098
63	0xbe0b63fb	-0.13612358
64	0xbdf7a01c	-0.12091085
65	0x3dece3df	0.115669005
66	0xbe247263	-0.1605926
67	0x3d2da186	0.04239037
68	0xbdf1a3e8	-0.11798841
69	0x3d6d6db6	0.057965957
70	0x3ccbeefc	0.02489423
71	0x3b8465d1	0.004040458
72	0x3de0e1f1	0.10980595
73	0x3e136344	0.14393336
74	0x3d1fd3b7	0.039020266
75	0x3db1ec84	0.0868769
76	0xbc84993c	-0.01618635
77	0x3e5d4916	0.21609911
78	0xbd9cc90f	-0.076555364
79	0x3db9bdca	0.090694025
80	0x3e87ce16	0.2652442
81	0x3ed6d839	0.4196184
82	0xbe1efd28	-0.15526259
83	0x3e1720d6	0.1475862
84	0xbd7efe72	-0.062254377
85	0x3db9db41	0.090750225
86	0x3cfda629	0.03096302
87	0xbd055b80	-0.032557964
88	0x3db88b67	0.09010964
89	0x3e41c13b	0.18921368
90	0x3c287c73	0.010283577
91	0x3e68a33e	0.22718522
92	0xbc750af3	-0.014956224
93	0x3d912ed1	0.07089008
94	0x3d813a8a	0.063099936
95	0x3e5101c5	0.20410831
96	0xbe79d612	-0.24398068
97	0x3e06cdb4	0.13164407
98	0xbda276cf	-0.07932817
99	0xbe20dbad	-0.157088
100	0x3d6833ac	0.056689903
101	0xbdcbcbb2	-0.09950961
102	0x3d847871	0.06468285
103	0x3e7a866f	0.24465345
104	0x3e353628	0.1769644
105	0xbe7fe6d7	-0.24990402
106	0x3c2db91a	0.010603214
107	0x3ee1c5a2	0.44096094
108	0xbd184967	-0.037179377
109	0x3e83600f	0.25659224
110	0x3ced4674	0.028964259
111	0xbd6ab17e	-0.057298176
112	0x3d453a1d	0.048151124
113	0x3adf641f	0.0017043388
114	0xbd234d70	-0.039868772
115	0xbe372d36	-0.1788834
116	0x3d3373c1	0.043811563
117	0x3ccfc281	0.025361301
118	0xbd6e7fef	-0.058227476
119	0x3e9f2afa	0.31087476
120	0x3d172cc0	0.03690791
121	0xbdfffd5b	-0.124994956
122	0xbdf806a1	-0.12110639
123	0x3d82bcc9	0.06383664
124	0xbe2d905b	-0.16949598
125	0x3ea65922	0.32489878
126	0xbdb755bc	-0.089518994
127	0xbda8d1ef	-0.08243167
128	0x3ed2b58c	0.41154134
129	0x3efe2cba	0.496435
130	0xbdec80c4	-0.115479976
131	0x39b5e2ca	0.0003469198
132	0xbe449fb2	-0.19201544
133	0xbd39eae6	-0.045390032
134	0x3dcf062f	0.10108601
135	0x3d5e49be	0.054269545
136	0x3d547993	0.051873755
137	0x3d8fb749	0.07017381
138	0xbe9275b6	-0.2860543
139	0x3e2f5d0b	0.17125337
140	0xbe98f3f4	-0.2987362
141	0x3e558575	0.20851691
142	0xbe74e716	-0.23916277
143	0x3e116cbf	0.1420164
144	0xbeaafe67	-0.3339722
145	0xbd6660be	-0.056244604
146	0xbe22d16c	-0.159002
147	0xbe7fa8c1	-0.24966718
148	0xbdefcd54	-0.11709085
149	0xbe163dc4	-0.14671999
150	0xbeb61d21	-0.355691
151	0xbd2f8d7d	-0.042859543
152	0xbd1b3007	-0.0378876
153	0xbe5ebfe1	-0.21752883
154	0xbeb0e4a3	-0.34549436
155	0xbdf956b9	-0.12174744
156	0xbd25d916	-0.040490232
157	0x3ea4b511	0.32169393
158	0xbe89a158	-0.26880908
159	0x3c955747	0.018230094
160	0x3ddf69b6	0.10908835
161	0x3e2a975c	0.16659302
162	0xbd7238f3	-0.059136342
163	0x3e9d49ad	0.30720273
164	0xbe917b45	-0.2841436
165	0xbd0d2c17	-0.034465875
166	0xbdb12917	-0.086504154
167	0xbd041205	-0.032243747
168	0xbcc20778	-0.023685202
169	0xbee0fa24	-0.43940842
170	0x3d11b7ec	0.035575792
171	0x3e077404	0.1322785
172	0x3de380fb	0.111085854
173	0x3cf74096	0.030182164
174	0xbdc8b546	-0.098002
175	0xbdc2e0f8	-0.09515566
176	0x3eb5ebf0	0.3553157
177	0xbe8137af	-0.25237796
178	0xbdbb4c0b	-0.091453634
179	0x3f129c27	0.5726952
180	0xbbffe660	-0.0078094453
181	0xbbcb4a77	-0.0062039453
182	0xbda4d2a0	-0.08047986
183	0x3ed75baa	0.42062122
184	0x3da0bdf7	0.07848733
185	0xbe8a5c53	-0.27023563
186	0x3db512f5	0.088415064
187	0x3f2a7ff2	0.6660148
188	0x3e19d333	0.15021972
189	0x3d45fa9e	0.04833471
190	0x3d2ece5f	0.04267728
191	0x3df16fdf	0.11788916
192	0xbe6349a3	-0.22196059
193	0x3dd8e6ef	0.10590922
194	0x3ddd57fb	0.108077966
195	0xbe0b4349	-0.13599886
196	0xbbaeabac	-0.0053305235
197	0xbe8e957a	-0.27848417
198	0xbe827078	-0.25476432
199	0x3dcc7514	0.099832684
200	0xbcc23a7f	-0.023709534
201	0xbe8638ab	-0.2621511
202	0xbc98a7c8	-0.018634692
203	0xbd8ed468	-0.06974107
204	0xbe531aaa	-0.2061564
205	0x3ef2cba6	0.47420996
206	0xbe12ceef	-0.14336751
207	0x3d4ca5a0	0.04996264
208	0x3c0fa9fa	0.008768553
209	0x3ea845a2	0.32865626
210	0xbda65e20	-0.08123422
211	0x3c542aa0	0.012949616
212	0xbdbebe04	-0.09313586
213	0xbe97c3ae	-0.2964148
214	0xbdb8557b	-0.09000679
215	0x3e87d880	0.26532364
216	0x3d5971a5	0.053086895
217	0xbea72a91	-0.32649663
218	0x3e50370e	0.20333502
219	0x3e1fbf09	0.15600218
220	0xbe256e1e	-0.16155288
221	0x3ec35041	0.38147166
222	0xbd089d18	-0.03335294
223	0xbd17f0a1	-0.037094716
224	0x3ee4e592	0.44706398
225	0xbd8fd758	-0.070234954
226	0xbe6c4853	-0.23074464
227	0x3dad16a1	0.08451582
228	0x3da87be9	0.08226759
229	0xbc0a2838	-0.00843244
230	0x3e08033d	0.13282485
231	0x3ebd0886	0.36920565
232	0xbcac12a4	-0.021004982
233	0xbc8aa692	-0.01692513
234	0xbdbfaaf2	-0.09358777
235	0x3ee7a537	0.45243236
236	0xbdc9ef64	-0.09860113
237	0x3e0d7359	0.13813533
238	0xbe177a7b	-0.14792816
239	0x3e72ab9a	0.23698273
240	0xbe0d5cf7	-0.13804995
241	0x3e4fc611	0.202904
242	0x3e162b02	0.14664844
243	0x3e49caf5	0.19706328
244	0x3dc8e648	0.09809548
245	0xbd2437ab	-0.04009215
246	0xbdc44bf8	-0.095848024
247	0x3f10d3b1	0.56573015
248	0x3cf28b62	0.029607479
249	0xbed4e06a	-0.41577464
250	0x3eec7d8b	0.46189532
251	0xbc438171	-0.011932717
252	0xbecc0afb	-0.39852127
253	0x3f467015	0.77514774
254	0xbdc10035	-0.094238676
255	0x3c11da0a	0.008902082

arith.constant3 f4 [1, 3, 3, 16]
0	0xbe629f2d	-0.22131033
1	0x3e16a988	0.14713109
2	0xbe9b4f1c	-0.30333793
3	0xbdf18a4f	-0.117939584
4	0x3dac9b0e	0.08428012
5	0x3b926c2a	0.0044684606
6	0x3dc1c682	0.094616905
7	0x3e040e5d	0.12896104
8	0xbc51f58f	-0.012814893
9	0x3dae179b	0.08500596
10	0xbd3108c0	-0.043221235
11	0xbe185636	-0.14876637
12	0x3ea33d8c	0.31882894
13	0xbe5c8814	-0.21536285
14	0x3c8d9b90	0.017286092
15	0xbb985536	-0.00464883
16	0xbea004a1	-0.31253532
17	0xbebc1cdf	-0.36740777
18	0xbe6b343e	-0.22969148
19	0xbe8988b9	-0.26862124
20	0x3dab07fc	0.08351132
21	0x3e05852e	0.13039085
22	0x3e9db9a9	0.3080571
23	0x3d98625d	0.07440636
24	0xbe4d97ad	-0.20077391
25	0x3e985ff8	0.29760718
26	0x3e6c0c29	0.23051514
27	0xbe9ea3c1	-0.3098431
28	0xbbda01a5	-0.006653028
29	0x3db607ef	0.08888232
30	0x3d5adedf	0.053435203
31	0x3e424829	0.1897284
32	0xbf3118dd	-0.69178563
33	0xbebab9f9	-0.3647001
34	0xbeb52ef5	-0.35387388
35	0xbebf682e	-0.3738417
36	0xbe0af0b3	-0.13568382
37	0x3e4e19bf	0.20127009
38	0x3e5ed1a2	0.21759656
39	0xbde862ef	-0.11346995
40	0xbdd3ea43	-0.10347416
41	0x3ee9c89a	0.4566086
42	0x3ee1dcb6	0.44113702
43	0x3cd29d6b	0.025709828
44	0x3e249400	0.16072083
45	0x3e17901d	0.14801069
46	0x3d8af866	0.067856595
47	0x3ed67042	0.4188252
48	0xbdb2751f	-0.08713745
49	0xbcc18e50	-0.02362743
50	0xbdba2b6c	-0.09090313
51	0x3d47355c	0.04863487
52	0x3ed1a0f1	0.409431
53	0x3e76efe3	0.24114947
54	0x3ecac4ae	0.3960318
55	0x3d28767c	0.04112862
56	0xbdadf07b	-0.08493134
57	0x3e88be32	0.26707608
58	0x3e08a072	0.13342455
59	0xbdd388a1	-0.10328794
60	0x3eb69b51	0.35665372
61	0xbe81633d	-0.25271025
62	0x3e6ecce8	0.23320353
63	0xbe0b9229	-0.13629974
64	0xbe325773	-0.17416172
65	0xbeb0996c	-0.34492052
66	0xbe4ac96c	-0.19803399
67	0xbea16af6	-0.31526917
68	0x3ec0d3d8	0.37661624
69	0x3e8a684e	0.27032703
70	0x3e59250b	0.21205537
71	0xbda4405c	-0.08020088
72	0x3def9b5c	0.11699554
73	0x3ec5c274	0.38624918
74	0xbd225945	-0.039635915
75	0xbe9cdd89	-0.30637768
76	0x3e18e0aa	0.14929453
77	0xbdb2df26	-0.087339684
78	0x3e826ae6	0.25472182
79	0x3e31b7c2	0.17355254
80	0xbef0491b	-0.46930775
81	0xbf0cb139	-0.5495792
82	0x3da2bc7c	0.07946107
83	0xbeb63c44	-0.35592854
84	0x3e9f47b6	0.311094
85	0x3d199223	0.037492882
86	0x3d3eba78	0.04656455
87	0xbeade6ba	-0.33965093
88	0x3ee1cb61	0.44100478
89	0x3ec70a0b	0.3887485
90	0x3ecd7be4	0.40133584
91	0xbeb98083	-0.3623086
92	0xbbfd6e86	-0.0077341227
93	0xbdee35b5	-0.116313376
94	0x3e7d245b	0.247209
95	0x3f04c98a	0.51870024
96	0xbdf84c68	-0.12123948
97	0x3e95397d	0.29145423
98	0x3e530a0e	0.20609304
99	0xbe9f2b5d	-0.3108777
100	0x3f02e88f	0.51136106
101	0x3ea5aaf8	0.32357
102	0x3e8e526e	0.27797264
103	0xbe4c783e	-0.19967744
104	0x3e8a9f3b	0.27074608
105	0x3e935bbb	0.28780922
106	0xbe39ec47	-0.18156539
107	0x3c3e8a3c	0.011629637
108	0x3e6d720f	0.23188041
109	0xbedd29e5	-0.43196025
110	0x3de58e6c	0.112088054
111	0xbe1964af	-0.14979814
112	0x3e0e401d	0.13891645
113	0xbcfd8d16	-0.030951064
114	0xbde972a3	-0.11398818
115	0xbecc3cd0	-0.39890146
116	0x3e1c9853	0.15292482
117	0x3e025e5b	0.12731306
118	0x3db85ff4	0.090026766
119	0xbe6e2bc3	-0.23258881
120	0x3ee8f44d	0.45498887
121	0x3d9cdf99	0.07659835
122	0xbe20e145	-0.15710934
123	0xbe7d1e74	-0.24718648
124	0x3d3ce9a8	0.04612127
125	0xbdebb09d	-0.11508296
126	0x3e067c38	0.13133323
127	0x3e1866ce	0.14882967
128	0xbcb65f66	-0.022262286
129	0xbe74f2e2	-0.23920777
130	0x3e654253	0.22388582
131	0xbe2ed7a1	-0.17074443
132	0xbc382fcc	-0.011241864
133	0x3e0c93b1	0.13728215
134	0x3da7cd32	0.08193435
135	0xbee27bbb	-0.44235024
136	0x3f1743fb	0.59088105
137	0x3f0bdbf0	0.54632473
138	0x3d5e00cd	0.054199982
139	0xbef94711	-0.48687032
140	0xbe11bf3c	-0.14233106
141	0xbe113496	-0.14180216
142	0x3eb07750	0.34466028
143	0x3e06beff	0.13158797

arith.constant4 f4 [16, 3, 3, 64]
0	0xbdedaa77	-0.11604779
1	0x3c9fcf7e	0.01950812
2	0x3e0b9e29	0.13634552
3	0x3e4463e7	0.19178735
4	0x3e504701	0.20339586
5	0xbeb4b05e	-0.35290807
6	0x3e53e2ac	0.20691937
7	0xbe5d5241	-0.21613409
8	0xbe502497	-0.20326458
9	0xbc138eb2	-0.009006189
10	0x3e55975b	0.20858519
11	0xbe707bd5	-0.23484738
12	0x3da2c222	0.07947184
13	0xbbd00061	-0.0063477014
14	0x3e6bdb4f	0.23032878
15	0x3da4eacf	0.08052599
16	0x3dacff15	0.084470905
17	0xbdf8141f	-0.12113213
18	0xbe84ee07	-0.2596285
19	0xbeb40c24	-0.35165513
20	0xbd157009	-0.0364838
21	0x3ebcd8df	0.3688421
22	0xbe52fb8d	-0.20603772
23	0xbd99ae55	-0.07503954
24	0xbea36514	-0.31913054
25	0xbe887a24	-0.26655686
26	0xbea60355	-0.32424417
27	0xbf08b74a	-0.53404677
28	0xbe785abd	-0.24253364
29	0x3f111115	0.5666669
30	0xbd6d7089	-0.05796865
31	0xbdbe7cbc	-0.09301135
32	0x3d8bf8cc	0.068345636
33	0xbe766db9	-0.24065293
34	0xbe19ae38	-0.15007865
35	0xbea670ea	-0.32508022
36	0xbe94ca91	-0.29060796
37	0xbd5b7b35	-0.053584296
38	0x3ed295a4	0.41129792
39	0x3ea7c252	0.32765442
40	0x3dcc1c97	0.099663906
41	0xbdf9b0ba	-0.12191911
42	0x3e0f2185	0.1397763
43	0xbf1d0e6e	-0.6135014
44	0xbeb11bab	-0.3459142
45	0x3ddbcfe2	0.1073301
46	0xbe63e189	-0.22254004
47	0xbe9986e7	-0.29985735
48	0xbd8128d5	-0.06306616
49	0x3eb4029a	0.35158235
50	0xbe3e3f74	-0.18578893
51	0xbd25e48e	-0.04050117
52	0x3e90a215	0.2824866
53	0xbd1b1e4a	-0.037870683
54	0x3e1f4c06	0.15556344
55	0xbed05838	-0.40692306
56	0x3e8b9d71	0.27268556
57	0x3dfb329f	0.122655146
58	0xbb7bc67c	-0.0038417866
59	0xbec7e06c	-0.39038408
60	0x3e2411c0	0.16022396
61	0xbdee0000	-0.11621094
62	0xbca971b7	-0.020684106
63	0xbe4fd3af	-0.20295595
64	0xbe0ade84	-0.13561445
65	0xbe212d62	-0.15739968
66	0x3e0b28bd	0.13589759
67	0x3c300d0e	0.0107453
68	0x3de5c160	0.11218524
69	0xbcd9b6be	-0.026576396
70	0x3da93b8d	0.082633115
71	0x3c96a194	0.018387593
72	0xbe276d94	-0.16350394
73	0xbe3320e0	-0.1749301
74	0x3e8fe6d9	0.2810581
75	0xbeeb0aaf	-0.45906588
76	0x3d43adb6	0.047773086
77	0x3d8f9fe8	0.070129216
78	0x3df4f492	0.119607106
79	0xbde5b347	-0.11215835
80	0x3df65f54	0.12029901
81	0xb969b904	-0.00022289535
82	0xbe040736	-0.12893376
83	0xbe5c1fbc	-0.2149648
84	0x3ebd27d1	0.3694444
85	0x3e8e9414	0.2784735
86	0xbe788016	-0.24267611
87	0xbab22702	-0.0013591947
88	0xbdfd4089	-0.12365825
89	0xbe077c7c	-0.13231081
90	0xbe4aa889	-0.19790854
91	0xbdbdc868	-0.0926674
92	0xbe30d79d	-0.1726975
93	0xbdd28f51	-0.10281242
94	0xbe3e3ef8	-0.18578708
95	0xbe4e7b08	-0.2016412
96	0xbe4cf528	-0.20015395
97	0xbdb815f9	-0.08988566
98	0xbe041abe	-0.12900826
99	0xbe33c881	-0.17556955
100	0xbe4e59ee	-0.20151493
101	0xbd15fc1d	-0.036617387
102	0x3d9428a2	0.072343126
103	0x3dd35ad4	0.103200585
104	0x3d2f96cb	0.042868417
105	0x3dbea32a	0.09308465
106	0x3e80c900	0.2515335
107	0xbf00af9c	-0.5026796
108	0xbebb3b61	-0.3656874
109	0xbb197380	-0.002341479
110	0xbc50d315	-0.012745638
111	0xbd8bf321	-0.068334825
112	0x3d81988a	0.06327923
113	0x3e6b2fc4	0.2296744
114	0xbcb95a01	-0.022625925
115	0xbe27244e	-0.16322443
116	0x3e93f7ce	0.28899997
117	0x3ccbc728	0.024875239
118	0x3df9250c	0.12165269
119	0xbe620a7e	-0.22074315
120	0x3d256c91	0.04038674
121	0x3e09b53e	0.13448045
122	0xbe1e5d52	-0.15465286
123	0xbe66f5dc	-0.22554725
124	0x3e79ef16	0.2440761
125	0x3d84d681	0.06486226
126	0x3e2040fc	0.1564979
127	0xbe363266	-0.17792663
128	0xbd1831bd	-0.03715681
129	0x3de202cd	0.110356905
130	0xbe532f72	-0.20623568
131	0x3e8f1f96	0.27953786
132	0xbde70ad3	-0.112813614
133	0x3e22afc5	0.15887363
134	0xbe720c29	-0.23637451
135	0x3e978895	0.2959639
136	0xbd8e74c4	-0.06955865
137	0xbe461d35	-0.19347079
138	0x3e3a9a45	0.18222912
139	0xbe02e57c	-0.12782854
140	0xbdba0a0c	-0.090839475
141	0x3cc40bae	0.02393135
142	0x3dc98648	0.09840065
143	0x3bcf3bf4	0.0063242856
144	0xbd5446c1	-0.05182529
145	0xbe5759fc	-0.2103042
146	0x3cbdd1ce	0.023171332
147	0xbeac9bab	-0.33712515
148	0x3ed2f982	0.41205984
149	0xbe2b3913	-0.16720991
150	0x3c2ff15e	0.010738699
151	0x3e3b67f9	0.18301381
152	0xbd7dff36	-0.062010966
153	0x3dc5c1cb	0.09656104
154	0xbdbb0287	-0.091313414
155	0x3da89825	0.08232144
156	0xbe4403ca	-0.1914207
157	0xbf0d205a	-0.5512749
158	0xbd1e63f7	-0.038669553
159	0xbdfc9ffd	-0.12335203
160	0xbe8139de	-0.25239462
161	0xbac76c16	-0.0015214707
162	0x3cc16f9a	0.023612786
163	0xbf1bb949	-0.608296
164	0x3ed2e9f2	0.4119411
165	0xbe1b764a	-0.15181842
166	0xbe1be6ef	-0.15224813
167	0xbe6ad8b0	-0.22934222
168	0x3e1b0684	0.15139204
169	0xbd2991a1	-0.04139865
170	0x3dc6e567	0.09711724
171	0xbdffc4c1	-0.124887
172	0xbe1c2653	-0.15248995
173	0xbb2934de	-0.0025818865
174	0xbe35652d	-0.17714377
175	0x3d5ad94b	0.053429883
176	0x3e422fc3	0.18963532
177	0x3d9e6170	0.077334285
178	0xbe0a454f	-0.13503002
179	0xbe6237dc	-0.22091621
180	0x3e85859e	0.26078504
181	0xbe38252c	-0.1798293
182	0xbc0f4851	-0.008745269
183	0x3ca6df79	0.020370232
184	0xbe1996e3	-0.14998965
185	0x3d84edfa	0.06490703
186	0xbbf48531	-0.0074621667
187	0xbedfa2c1	-0.4367886
188	0x3e9963a3	0.2995883
189	0x3e334eca	0.17510524
190	0x3ea59b5a	0.32345086
191	0x3e597a3d	0.21238036
192	0xbe26103c	-0.1621713
193	0x3e3c6ca8	0.18400824
194	0x3e6bd482	0.23030284
195	0xbda107a4	-0.078627855
196	0x3e6456d8	0.22298753
197	0xbe4995da	-0.1968607
198	0x3de3213e	0.11090325
199	0xbe68493a	-0.22684184
200	0x3e368f14	0.17828017
201	0x3e54700f	0.20745872
202	0xbdbbd853	-0.0917212
203	0x3e08601a	0.1331791
204	0x3dab7b40	0.083731174
205	0x3c5dd4a4	0.013539467
206	0x3de01048	0.109406054
207	0xbca1a7a4	-0.019733258
208	0x3bce2533	0.0062910556
209	0x3a7d444c	0.0009661361
210	0xbdf88fd7	-0.1213681
211	0xbe6745ec	-0.22585267
212	0xbe2f1ed7	-0.17101608
213	0x3e90eb64	0.2830459
214	0xbe445635	-0.1917351
215	0x3f19d1eb	0.60085934
216	0x3e083749	0.1330234
217	0x3dbe3cc8	0.09288937
218	0xbe0563dc	-0.13026375
219	0xbeb5e5f2	-0.35526997
220	0xbe42f52a	-0.19038835
221	0xbe2b4063	-0.1672378
222	0x3d28b3f5	0.041187245
223	0x3e64e5c4	0.22353274
224	0x3ef337fa	0.47503644
225	0xbea1e025	-0.3161632
226	0xbe6bcb48	-0.23026764
227	0x3da95bb4	0.08269444
228	0xbdc6dd86	-0.09710221
229	0xbd0d1b0b	-0.03444962
230	0xbc7ab615	-0.015302201
231	0x3e565de8	0.2093426
232	0x3eaac156	0.3335063
233	0xbe543853	-0.20724611
234	0xbe63885e	-0.22219989
235	0xbe6851a3	-0.22687392
236	0xbdf72c99	-0.12069053
237	0x3e0e8a32	0.13919905
238	0xbe68e49e	-0.2274346
239	0xbd64b859	-0.05583987
240	0x3d845ba8	0.064627945
241	0x3e2327ab	0.15933101
242	0xbc019ded	-0.007911188
243	0xbf163be9	-0.58685166
244	0xbed1a602	-0.40946966
245	0xbe276a0a	-0.16349044
246	0x3ea67a9e	0.32515424
247	0x3d43102b	0.04762284
248	0x3e09b04a	0.13446155
249	0x3e570b51	0.2100041
250	0x3d824673	0.06361093
251	0xbc3c7f3a	-0.011504943
252	0x3e32454d	0.17409249
253	0xbea655b0	-0.3248725
254	0x3e22dbf3	0.15904216
255	0xbdaa7cf1	-0.08324612

arith.constant5 f4 [16]
0	0x00000000	0.0
1	0x00000000	0.0
2	0x00000000	0.0
3	0x00000000	0.0
4	0x00000000	0.0
5	0x00000000	0.0
6	0x00000000	0.0
7	0x00000000	0.0
8	0x00000000	0.0
9	0x00000000	0.0
10	0x00000000	0.0
11	0x00000000	0.0
12	0x00000000	0.0
13	0x00000000	0.0
14	0x00000000	0.0
15	0x00000000	0.0

arith.constant6 f4 [1, 3, 3, 64]
0	0xbdb09af9	-0.08623309
1	0x3ac64cae	0.0015129053
2	0x3d165014	0.036697462
3	0x3daef057	0.08541935
4	0x3e35b72c	0.17745656
5	0xbe3c746a	-0.18403783
6	0x3d5265d7	0.051366653
7	0xbda9e414	-0.082954556
8	0xbe1ca5ce	-0.15297624
9	0xbd6ed34d	-0.05830698
10	0x3d86f060	0.06588817
11	0xbf06497f	-0.52455896
12	0xbc1a93ff	-0.009434699
13	0xbd5ca6bb	-0.053869944
14	0x3e496cf3	0.19670467
15	0xbeb02e99	-0.3441055
16	0xbe2f6327	-0.17127667
17	0xbdd51421	-0.1040423
18	0xbc1b30b1	-0.009472058
19	0xbcb44d97	-0.022009654
20	0x3dd43b7a	0.10362907
21	0x3e95e26b	0.29274306
22	0x3e1e551d	0.15462156
23	0xbd8af809	-0.0678559
24	0xbea2256c	-0.31669176
25	0xbe22bb16	-0.1589168
26	0xbe559e7e	-0.20861241
27	0x3e1b08ab	0.15140025
28	0xbdfd6372	-0.12372483
29	0xbd889fcc	-0.06671104
30	0xbc6318a4	-0.013860855
31	0xbd3dca5c	-0.046335563
32	0x3e41c511	0.18922831
33	0x3da135cc	0.07871589
34	0xbe4af45e	-0.19819781
35	0xbe1f17aa	-0.15536371
36	0xbe39dce9	-0.18150677
37	0xbd59caef	-0.05317205
38	0x3e804d26	0.2505886
39	0xbf2c1253	-0.6721546
40	0x3de00758	0.10938901
41	0x3d721b27	0.059107926
42	0xbdde1e32	-0.10845603
43	0x3dfa7e95	0.12231175
44	0xbe9c66fa	-0.30547315
45	0xbdc59c60	-0.09648967
46	0x3dffca94	0.124898106
47	0x3d9badc9	0.07601506
48	0x3e1fad76	0.15593514
49	0xbeec729a	-0.46181184
50	0xbd8f4d2d	-0.06997142
51	0x3e05ef13	0.13079481
52	0x3e55dceb	0.20885055
53	0x3ec28caf	0.37997958
54	0xbee04ee2	-0.43810183
55	0xbdfa798c	-0.122302145
56	0x3e41b952	0.1891835
57	0xbe20d045	-0.15704449
58	0xbcac4e30	-0.021033376
59	0xbe95c26f	-0.29249904
60	0xbdb0269d	-0.08601115
61	0xbcbea2e9	-0.023271041
62	0xbdbb5b1e	-0.091482386
63	0x3ef58f42	0.4796086
64	0x3bb05362	0.0053810338
65	0x3e19b495	0.15010293
66	0x3f22057d	0.63289624
67	0x3d862844	0.06550649
68	0x3e065f3c	0.13122267
69	0xbe3ddc68	-0.1854111
70	0x3ea75ac4	0.32686436
71	0xbda2fb30	-0.079580665
72	0xbb68b091	-0.0035505632
73	0xbe883f10	-0.26610613
74	0x3e4510b1	0.19244649
75	0xbdb7c54a	-0.08973177
76	0x3df12d37	0.11776202
77	0x3d44bf70	0.04803413
78	0x3ddbce8a	0.107327536
79	0x3de196de	0.11015104
80	0xbcccc728	-0.024997309
81	0xbd6b315d	-0.057420123
82	0xbceb0f20	-0.028693736
83	0xbe3fe559	-0.18739833
84	0xbcb14f2f	-0.021644203
85	0x3e1693cb	0.14704816
86	0x3e1caa95	0.15299447
87	0x3e0b5958	0.136083
88	0xbeaecb5f	-0.34139535
89	0xbed00998	-0.4063232
90	0xbe1f176c	-0.15536278
91	0xbea713cc	-0.3263229
92	0xbe7af361	-0.24506904
93	0xbddc9202	-0.10770036
94	0xbe3f89ef	-0.18704961
95	0xbe054bd1	-0.13017203
96	0x3ea4bbbb	0.32174477
97	0xbd62c60a	-0.055364646
98	0xbdf44437	-0.119270734
99	0x3df4b387	0.119483046
100	0x3bdf84bb	0.0068212426
101	0xbced3774	-0.028957106
102	0x3db5b83a	0.08873029
103	0xbe994a7d	-0.29939643
104	0x3d5a8251	0.053346936
105	0x3dd784af	0.10523354
106	0xbd8d5038	-0.06900066
107	0xbeb144c4	-0.34622777
108	0xbe0aff54	-0.13573962
109	0xbd223159	-0.039597843
110	0x3d55aed7	0.052168693
111	0x3cf68e26	0.030097079
112	0xbdb4032d	-0.08789668
113	0xbebcfddd	-0.36912432
114	0xbdb835eb	-0.08994659
115	0xbde6bd3d	-0.11266563
116	0x3d95dad7	0.07317131
117	0x3dc1b289	0.09457881
118	0xbc83f251	-0.016106756
119	0xbe23c6ef	-0.15993856
120	0x3e0d7281	0.13813211
121	0x3d242cb4	0.040081695
122	0x3cbc6781	0.022998573
123	0xbe23da2e	-0.16001198
124	0xbd84c269	-0.06482393
125	0xbe3731b9	-0.17890061
126	0xbe96fee5	-0.29491344
127	0xbd9a2732	-0.07527007
128	0x3ef48a6b	0.47761855
129	0x3e5c0165	0.21484907
130	0xbd8ade70	-0.06780708
131	0xbdaa548b	-0.083169065
132	0xbcd3664e	-0.025805619
133	0xbb48761c	-0.0030587977
134	0x3daa6a2b	0.08321031
135	0xbe321dff	-0.17394255
136	0x3ed421d8	0.4143207
137	0xbe2d5392	-0.16926411
138	0xbeb07e7f	-0.3447151
139	0x3d7b0260	0.06128156
140	0x3dbdc13d	0.09265373
141	0xbde2d585	-0.11075882
142	0x3d105e8e	0.035246424
143	0x3db12128	0.08648902
144	0x3cfdd82b	0.030986866
145	0x3e1753f6	0.14778122
146	0xbdaea5e5	-0.085277356
147	0x3e3b1c8b	0.18272607
148	0xbeba906f	-0.3643832
149	0xbe0a4221	-0.13501789
150	0x3cbf2a09	0.023335474
151	0xbdf61b2e	-0.12016903
152	0xbe726027	-0.23669492
153	0xbe1e76cc	-0.15475005
154	0xbe02d07b	-0.12774841
155	0x3e343d12	0.17601421
156	0x3c9994c8	0.018747702
157	0x3e417d17	0.18895374
158	0x3e61ec34	0.2206276
159	0xbe0c6a4c	-0.13712424
160	0x3eba9277	0.3643987
161	0xbdd96c76	-0.106163904
162	0x3b95ff50	0.0045775548
163	0x3f012b1b	0.504564
164	0x3d5ff2d7	0.05467495
165	0x3c0c8bac	0.008578222
166	0xbd5c8851	-0.05384094
167	0xbe1d1acb	-0.15342252
168	0xbcb3ef35	-0.021964649
169	0xbe60cb80	-0.21952629
170	0xbd9ecca5	-0.077538766
171	0xbf0f8c88	-0.5607381
172	0x3e9cdf17	0.30638954
173	0x3dffe012	0.1249391
174	0xbe29f8b0	-0.16598773
175	0xbca88188	-0.020569578
176	0xbe93537f	-0.2877464
177	0xbe5a2d03	-0.21306233
178	0x3e1ee6bf	0.1551771
179	0xbde91448	-0.113808215
180	0xbe6eb4f5	-0.23311217
181	0x3e360289	0.17774405
182	0x3ddbff15	0.107420124
183	0xbe67e52b	-0.22646014
184	0x3b18701a	0.0023260177
185	0xbe76e37f	-0.2411022
186	0xbd20aed6	-0.039229237
187	0x3e9968d9	0.29962805
188	0xbc7fa81f	-0.015604048
189	0xbef3abf1	-0.47592118
190	0xbe21f417	-0.15815769
191	0xbeaa187f	-0.33221814
192	0xbdc7a2c5	-0.09747843
193	0xbd584d33	-0.052807998
194	0xbeb8c915	-0.36090913
195	0xbd2047c9	-0.03913096
196	0x3db79b34	0.089651495
197	0x3e068b56	0.1313909
198	0xbeeaa87f	-0.45831677
199	0xbda70ce0	-0.081567526
200	0xbe6927b0	-0.22769046
201	0xbd5dfb4a	-0.054194726
202	0x3d90e6e7	0.07075291
203	0xbecab46a	-0.3959077
204	0xbe24fc72	-0.16111925
205	0xbda514bb	-0.08060595
206	0x3e114785	0.14187439
207	0xbe92eacc	-0.2869476
208	0xbe8c185b	-0.27362332
209	0xbe8b471e	-0.27202696
210	0x3dcdefa6	0.10055475
211	0x3e0095cf	0.12557147
212	0x3d80572e	0.06266628
213	0x3e452ce8	0.19255412
214	0x3dc34255	0.09534136
215	0x3e7e4f20	0.24834871
216	0xbe19f073	-0.1503313
217	0xbf066550	-0.5249834
218	0xbe28dc5c	-0.1649031
219	0x3e43cb36	0.19120488
220	0xbeb24d5f	-0.34824654
221	0xbcb541d3	-0.022126114
222	0x3db33fa5	0.087523736
223	0x3e87e6d7	0.26543304
224	0xbe8808b8	-0.26569152
225	0x3e1d0b9f	0.15336464
226	0x3d9e0cf8	0.07717317
227	0xbecfd553	-0.4059244
228	0x3e4a7ff7	0.19775377
229	0xbdfb8e8f	-0.1228305
230	0x3d86b951	0.06578315
231	0xbf39ecac	-0.7262676
232	0x3c9f86be	0.01947343
233	0x3e8ef06f	0.2791781
234	0x3cf43b80	0.029813528
235	0x3ef61b0d	0.48067513
236	0xbea1104d	-0.3145775
237	0xbda442aa	-0.08020528
238	0x3df432d7	0.119237594
239	0xbdbdd073	-0.09268274
240	0x3eae0636	0.33989114
241	0xbe22d211	-0.15900446
242	0x3db2db38	0.08733219
243	0xbc9bcae2	-0.01901764
244	0x3dcf6054	0.10125795
245	0x3e5190da	0.20465413
246	0xbe920fa8	-0.2852757
247	0x3e543b98	0.20725858
248	0x3d3c7864	0.04601325
249	0x3e7f8b71	0.24955536
250	0xbc171a3c	-0.009222563
251	0xbddba4c1	-0.10724784
252	0xbec0591f	-0.37567994
253	0x3e76743a	0.24067774
254	0xbd71e18e	-0.059052996
255	0x3e8fb5df	0.28068444

arith.constant7 f4 [4, 64]
0	0xbe7942f0	-0.24341941
1	0xbfc5b4a2	-1.544575
2	0xbf7da01b	-0.99072427
3	0xbf199fba	-0.6000935
4	0xbf302b76	-0.68816316
5	0xbf577914	-0.84169126
6	0xbf4f01d3	-0.8086216
7	0xbfa676b2	-1.3004973
8	0xbe1074de	-0.14107081
9	0x3efe376e	0.49651664
10	0xbf01c207	-0.5068669
11	0xbf31aebf	-0.69407266
12	0x3e64ee4b	0.22356527
13	0x3f006fcf	0.50170606
14	0xbf6b90ed	-0.92018014
15	0xbf8580c5	-1.0429922
16	0x3d886eed	0.066617824
17	0xbf425cde	-0.75922954
18	0xbe53e941	-0.20694448
19	0xbf0ed3e2	-0.5579206
20	0xbf2628e2	-0.6490613
21	0x3e6da965	0.2320915
22	0xbf95bbc3	-1.1697925
23	0xbf68ed68	-0.90987253
24	0xbeeed4d4	-0.4664675
25	0xbe7b9b3d	-0.24570937
26	0xbfb0013e	-1.3750379
27	0x3e23b39b	0.15986483
28	0xbd35e044	-0.04440333
29	0xbc96f4f8	-0.018427357
30	0xbfa73638	-1.3063421
31	0xbf338466	-0.701239
32	0xbdc2f6bf	-0.09519719
33	0xbf11a612	-0.5689403
34	0x3ea9b513	0.3314596
35	0xbd61d8ca	-0.055138387
36	0xbee8a0aa	-0.45435077
37	0x3db98c66	0.09059982
38	0xbddc0935	-0.107439436
39	0x3f2f3497	0.6843962
40	0xbf866f1a	-1.0502656
41	0xbf4e7f45	-0.8066295
42	0xbf9af3dd	-1.2105671
43	0x3fa5d07e	1.2954252
44	0xbf31ce69	-0.6945558
45	0x3f3c16f9	0.73472553
46	0xbf3e7453	-0.74396247
47	0xbf17b9b2	-0.59267724
48	0xbf8fe9f4	-1.1243272
49	0xbf06a8df	-0.52601427
50	0xbebf250c	-0.37332952
51	0xbed3774a	-0.41301948
52	0x3f45ff29	0.7734247
53	0xbeefe019	-0.4685066
54	0x3f912291	1.1338674
55	0xbf354f47	-0.7082409
56	0xbfa17a5e	-1.2615469
57	0xbf1c3855	-0.61023456
58	0xbf62e507	-0.8863072
59	0x3d12833a	0.03576968
60	0xbf658708	-0.89659166
61	0xbed4bd45	-0.4155065
62	0xbf2a9899	-0.66639096
63	0xbf46aa2a	-0.776034
64	0xbf1882d6	-0.5957464
65	0x3e36f2c0	0.1786604
66	0xbea6f17c	-0.32606113
67	0xbea16f4b	-0.31530222
68	0x3e028be0	0.1274867
69	0xbba1e940	-0.0049411356
70	0xbeeca3a9	-0.46218613
71	0xbec5e02a	-0.38647586
72	0x3e8c4007	0.273926
73	0xbcaf98f1	-0.021435233
74	0xbe9e7094	-0.30945265
75	0xbed1d11e	-0.40979856
76	0x3e3adb7b	0.18247788
77	0x3eb139e7	0.34614488
78	0xbed179b4	-0.40913165
79	0xbe99fbd2	-0.30074936
80	0x3e5743aa	0.21021906
81	0xbd24e49f	-0.040257093
82	0x3e1b0279	0.15137662
83	0x3f04b053	0.5183155
84	0x3ea12074	0.31470072
85	0x3c900f6e	0.017585482
86	0xbcd415dd	-0.025889331
87	0xbe148701	-0.14504625
88	0x3e9ad6fc	0.30242145
89	0xbe08a7f6	-0.13345322
90	0xbe579470	-0.21052718
91	0x3ebb0335	0.36525884
92	0x3e22c4eb	0.1589543
93	0x3d97ed4c	0.07418308
94	0x3d612181	0.054963592
95	0xbe171195	-0.14752801
96	0x3e9d353a	0.3070467
97	0x3c904017	0.017608685
98	0x3f0cd711	0.55015665
99	0x3e1b126f	0.1514375
100	0x3c885821	0.016643586
101	0xbf22873d	-0.6348761
102	0x3e5c0981	0.21488
103	0xbdcc32ec	-0.0997065
104	0xbdf74203	-0.120731376
105	0x3e956471	0.29178193
106	0xbdbbbc23	-0.091667436
107	0x3ef8b99d	0.48579112
108	0xbed93a00	-0.42427063
109	0xbecd03c6	-0.4004194
110	0xbe2594d0	-0.16170049
111	0x3ea8b5fb	0.3295134
112	0xbec1b78a	-0.37835342
113	0x3e81b8ec	0.25336397
114	0x3e5c206d	0.21496744
115	0xbd687b42	-0.056758173
116	0xbe9907aa	-0.2988866
117	0x3edbc657	0.4292476
118	0xbf005de6	-0.5014328
119	0xbee9b94d	-0.45649186
120	0x3e98f6ff	0.29875943
121	0x3e95caa3	0.29256162
122	0xbe6314d8	-0.2217592
123	0xbee4f068	-0.44714665
124	0xbe05a0ea	-0.13049665
125	0xbdbcdf09	-0.09222228
126	0xbea6872d	-0.32525006
127	0x3f18a1b8	0.59621763
128	0x3ed6f813	0.4198614
129	0x3e099b11	0.1343806
130	0x3eb151db	0.34632763
131	0x3e534685	0.2063237
132	0xbeeab9a3	-0.45844755
133	0xbe8b1538	-0.27164626
134	0x3eb0caf8	0.34529853
135	0x3f37c019	0.7177749
136	0xbb812972	-0.0039417082
137	0xbf0c4713	-0.5479595
138	0x3e4cfd43	0.20018487
139	0x3f12ef45	0.57396346
140	0xbdab06f7	-0.08350938
141	0xbeaba0ed	-0.33521214
142	0x3ed5a21f	0.4172525
143	0xbead4a58	-0.33845782
144	0x3e8a96ea	0.27068263
145	0x3ec8ee27	0.39244196
146	0x3e6b0737	0.22951971
147	0xbdb8e6b7	-0.0902838
148	0x3e9d9d16	0.3078391
149	0x3d2abd4f	0.041684445
150	0x3df6a88c	0.120438665
151	0x3e672ea5	0.22576387
152	0x3db25bcc	0.08708915
153	0x3f2694bb	0.65070695
154	0xbd971c5a	-0.073784545
155	0xbeb5dfe1	-0.3552237
156	0xbe38b93d	-0.18039413
157	0xbed3ed4d	-0.41391984
158	0xbe29f57f	-0.16597556
159	0x3e9a40f7	0.3012769
160	0xbe470d61	-0.19438697
161	0x3eae6236	0.34059304
162	0x3c8147f3	0.015781378
163	0xbe3486bc	-0.17629522
164	0x3eac2dc3	0.33628663
165	0xbf40eb84	-0.7535937
166	0xbde7dbc7	-0.11321216
167	0x3e2d03cc	0.1689598
168	0x3e5d72bd	0.216258
169	0x3dcdb57e	0.100443825
170	0x3ec4bfd1	0.38427594
171	0xbefeb17e	-0.4974479
172	0xbef05620	-0.46940708
173	0xbf186f66	-0.5954498
174	0x3ecbbbbd	0.3979167
175	0x3e7b1a52	0.24521759
176	0x3ebd64ae	0.36990875
177	0xbdca8e88	-0.09890467
178	0xbdcde110	-0.10052693
179	0xbe766eb3	-0.24065666
180	0xbf06da21	-0.5267659
181	0xbea6c66a	-0.32573253
182	0xbef39a8e	-0.47578853
183	0x3e42ed1b	0.19035761
184	0x3e42f23b	0.19037716
185	0x3e2bd3aa	0.16779962
186	0xbeed2459	-0.46316794
187	0xbf4edd13	-0.8080608
188	0xbd52fbd4	-0.051509693
189	0x3e749e73	0.23888569
190	0x3df1c91b	0.11805936
191	0xbebdabd0	-0.37045145
192	0xbeda984d	-0.4269432
193	0x3e267073	0.16253833
194	0xbe672b16	-0.2257503
195	0x3def0d02	0.11672403
196	0x3e9ccea5	0.30626407
197	0x3f0d78e5	0.55262595
198	0x3ee2b6b4	0.44280016
199	0xbd0d486f	-0.034492906
200	0xbea13501	-0.3148575
201	0x3c8719f9	0.016491877
202	0xbeaa98fd	-0.33319846
203	0xbe3ba4eb	-0.1832463
204	0xbd571bba	-0.052516676
205	0x3dcd5bcd	0.10027275
206	0xbf176a78	-0.59146833
207	0x3f0f12f4	0.55888295
208	0xbd9fec7a	-0.07808776
209	0xbc4b4a08	-0.012407787
210	0xbe15ee6a	-0.14641729
211	0x3d95fdfe	0.07323836
212	0xbe8d8124	-0.2763759
213	0xbd00dd63	-0.03146113
214	0xbe4bbc54	-0.1989606
215	0x3c29a942	0.010355296
216	0x3e877a2c	0.26460397
217	0xbecab5ee	-0.39591926
218	0x3cd68cc5	0.026190171
219	0xbe96dd38	-0.29465652
220	0x3cb8b538	0.02254735
221	0x3e5a7bbf	0.21336268
222	0x3dbf33b6	0.09336035
223	0x3dd91dea	0.10601409
224	0x3e37a6c0	0.17934704
225	0xbf02527e	-0.50907123
226	0xbd803ec8	-0.062619746
227	0x3b093277	0.002093462
228	0xbec44fd6	-0.3834216
229	0x3efc7e93	0.49315318
230	0xbe800333	-0.2500244
231	0xbf1b828d	-0.6074608
232	0xbeab498e	-0.33454555
233	0xbf1cc945	-0.6124461
234	0x3e92753a	0.28605062
235	0xbfa00a94	-1.2503228
236	0x3e39306b	0.18084876
237	0x3f201f9b	0.62548226
238	0xbec37d54	-0.38181555
239	0xbea2df56	-0.31811017
240	0x3f0cd497	0.55011886
241	0xbd2d2e14	-0.04228027
242	0x3e6bb7f4	0.23019391
243	0x3e3f47ab	0.18679683
244	0x3e9e81d7	0.30958435
245	0x3e84738f	0.25869414
246	0x3ee79254	0.45228827
247	0xbe4eb1ec	-0.2018506
248	0x3e5b2a6d	0.21402903
249	0xbe82d2c3	-0.25551423
250	0x3f10e2fb	0.56596345
251	0x3f298d97	0.66231674
252	0x3e2f6f1b	0.17132227
253	0xbd5e0082	-0.054199703
254	0x3db22bcd	0.086997606
255	0xbe2ecfe4	-0.17071491

arith.constant8 f4 [64, 16]
0	0xbdaa9c8f	-0.083306424
1	0x3f29ec47	0.66376156
2	0x3e6b8a93	0.2300208
3	0xbf36f553	-0.71468085
4	0xbd91759d	-0.07102511
5	0x3df7107b	0.1206369
6	0x3c594932	0.01326208
7	0xbf6ce9b4	-0.925441
8	0xbdf36067	-0.11883622
9	0xbd90fd50	-0.070795655
10	0x3e46d42d	0.19416876
11	0xbec29647	-0.38005278
12	0xbb74e206	-0.0037366166
13	0xbe276df8	-0.16350543
14	0xbe341f84	-0.17590147
15	0xbe9605fc	-0.2930144
16	0x3df79195	0.120883144
17	0xbe4e7fd3	-0.20165949
18	0xbde0e525	-0.10981206
19	0x3d657a62	0.056024916
20	0x3e5b84c8	0.21437371
21	0xbc0b601c	-0.008506801
22	0x3e5ba105	0.21448143
23	0x3ec1549e	0.3775987
24	0x3edb5b40	0.42843056
25	0x3ed57c38	0.41696334
26	0x3de4f788	0.11180025
27	0x3ea347d0	0.31890726
28	0xbda081d5	-0.078372635
29	0x3e5acc76	0.21367058
30	0x3e34b10c	0.17645663
31	0x3ed4ac22	0.41537577
32	0x3e4b9901	0.19882585
33	0x3dc9232f	0.09821164
34	0xbe372535	-0.17885287
35	0xbe6e2df2	-0.23259714
36	0x3e89810c	0.26856267
37	0x3da6bf07	0.08141904
38	0x3e33285c	0.17495865
39	0x3d333da6	0.043759964
40	0xbe911b1d	-0.28340998
41	0x3e3c7752	0.18404892
42	0x3e82932e	0.25502914
43	0xbe105cb3	-0.14097862
44	0x3e40ff16	0.18847308
45	0xbeb6ac3f	-0.35678288
46	0xbef98db5	-0.48740926
47	0xbefeca6e	-0.49763817
48	0x3e0a45d4	0.135032
49	0xbc04bfbd	-0.008102355
50	0x3e21c6e3	0.15798526
51	0xbf7068d6	-0.93909967
52	0xbd3287c9	-0.043586526
53	0xbd8ca981	-0.06868268
54	0x3e0439c5	0.12912662
55	0xbf63fe27	-0.8905968
56	0x3e28c0da	0.16479817
57	0x3e4cb44a	0.1999065
58	0x3dab68b2	0.083695784
59	0xbec1a8df	-0.3782415
60	0xbe26a6d3	-0.16274576
61	0x3d8ad35d	0.067785956
62	0xbef1c60a	-0.47221404
63	0x3d1c411b	0.038148027
64	0x3cb29c0f	0.02180293
65	0xbeb903fb	-0.3613585
66	0xbdd6dcce	-0.10491334
67	0x3d3abe32	0.04559154
68	0xbd262626	-0.040563725
69	0xbd577b05	-0.052607555
70	0xbe1f5a31	-0.15561749
71	0xbec012de	-0.37514395
72	0x3ef0aeff	0.4700851
73	0xbde65fc4	-0.112487346
74	0xbe0a8e95	-0.13530953
75	0x3f2a933d	0.6663092
76	0xbe211a92	-0.15732792
77	0xbda2b56c	-0.0794476
78	0x3e36a48d	0.17836209
79	0x3ec45034	0.3834244
80	0x3df7ca92	0.12099184
81	0xbe348906	-0.17630395
82	0x3d5ee4e5	0.05441751
83	0x3e97a0c6	0.29614848
84	0xbc920080	-0.017822504
85	0x3d906a49	0.07051522
86	0xbef4a7c5	-0.47784248
87	0xbe029cf3	-0.12755184
88	0xbf0c79ed	-0.54873544
89	0x3e0eae84	0.1393376
90	0x3c6aedc2	0.014338912
91	0xbd03a551	-0.03214008
92	0x3e225ff4	0.15856916
93	0x3f03a3b4	0.51421666
94	0x3ebf4b9e	0.3736238
95	0x3d1dca7b	0.03852318
96	0xbcacbe0b	-0.021086713
97	0x3f07e78c	0.5308769
98	0xbda5bd4f	-0.080927484
99	0x3d9fc55b	0.078013144
100	0xbf2abdab	-0.6669566
101	0x3eb42ab2	0.35188824
102	0xbeee0e75	-0.46495405
103	0x3db690ff	0.089143746
104	0x3e6c4884	0.23074538
105	0xbe7f367e	-0.24923131
106	0xbde344c6	-0.11097102
107	0x3dba34e3	0.090921186
108	0x3edd1ddb	0.4318684
109	0x3d79855f	0.06091821
110	0x3d855b9b	0.06511613
111	0x3d87fa1a	0.066395
112	0xbff4a62e	-1.9113214
113	0x3ef135f6	0.4711148
114	0x3e660f7a	0.22466841
115	0xbe62cfbe	-0.2214956
116	0x3e210687	0.15725146
117	0x3e039c35	0.12852557
118	0x3d9fd630	0.07804525
119	0xbc66c851	-0.014085845
120	0x3c948044	0.018127568
121	0xbdaf30f5	-0.0855426
122	0x3d99cceb	0.07509788
123	0x3e233586	0.15938386
124	0x3e0ea497	0.13929974
125	0xbd97fa86	-0.074208304
126	0x3cffe31c	0.031236224
127	0xbcde4c3f	-0.027135966
128	0x3e552064	0.20813137
129	0xbefd7512	-0.4950338
130	0x3e505e8d	0.20348568
131	0x3e20fb7d	0.15720935
132	0x3eb6cab4	0.35701525
133	0xbe29f471	-0.16597153
134	0x3e018543	0.12648492
135	0x3ec33435	0.38125768
136	0xbe26db94	-0.162947
137	0xbe2b52c2	-0.16730788
138	0x3e19d39e	0.15022132
139	0x3eb0a3ed	0.34500065
140	0x3ea36c68	0.31918645
141	0xbd9cf3c5	-0.07663683
142	0x3f138434	0.576236
143	0x3df53191	0.11972345
144	0x3cb45b52	0.022016201
145	0xbeb86cf1	-0.36020616
146	0xbd73f676	-0.059561215
147	0x3e17e75b	0.14834349
148	0xbe6e246e	-0.23256084
149	0x3e20d208	0.1570512
150	0x3c09bfee	0.008407576
151	0x3e9ad13a	0.30237752
152	0x3d76d1b1	0.06025857
153	0x3cffb5f7	0.031214697
154	0x3d2f130c	0.042742774
155	0x3e50f74d	0.20406838
156	0xbea63eeb	-0.32469878
157	0x3ec500f2	0.38477284
158	0x3ed33fb6	0.41259545
159	0x3f28cffb	0.65942353
160	0xbe7e0cd9	-0.24809588
161	0x3cf2be66	0.029631805
162	0x3e24cf25	0.16094644
163	0xbebabc7a	-0.3647192
164	0xbe2b5640	-0.1673212
165	0x3d8ade16	0.06780641
166	0x3e04f128	0.12982619
167	0xbf044758	-0.5167136
168	0xbe999674	-0.299976
169	0xbee2a6db	-0.44267926
170	0x3ea21c43	0.31662187
171	0xbdd77f4a	-0.10522325
172	0x3e3ffce4	0.18748814
173	0xbef5807e	-0.47949594
174	0xbe48e3a3	-0.19618087
175	0xbe7d93fc	-0.24763483
176	0x3da65359	0.08121366
177	0x3e90b986	0.28266543
178	0x3ea6a78b	0.325497
179	0xbdc8ffb8	-0.098143995
180	0xbdae59c5	-0.08513216
181	0x3d84d793	0.0648643
182	0xbd798b1b	-0.060923677
183	0xbea4eac9	-0.32210377
184	0xbefe1447	-0.49624845
185	0xbf027c06	-0.50970495
186	0xbe30dc89	-0.17271627
187	0xbe517a9d	-0.2045693
188	0xbc892bc4	-0.016744502
189	0xbed17b51	-0.40914395
190	0xbd7355c4	-0.059407964
191	0xbe813171	-0.25233033
192	0xbe1864a6	-0.14882144
193	0xbeac3a40	-0.3363819
194	0x3e47910b	0.19488923
195	0x3e56c538	0.2097367
196	0x3d6c7278	0.057726353
197	0x3db72a18	0.089435756
198	0x3e14d107	0.14532863
199	0x3d25fc34	0.040523723
200	0x3e176829	0.14785828
201	0xbde6fb87	-0.11278444
202	0x3e5c2045	0.21496685
203	0x3df31963	0.118700765
204	0xbe15af15	-0.1461757
205	0x3d2799b2	0.04091806
206	0x3ea967dd	0.33087054
207	0x3e41b911	0.18918253
208	0xbe5b2032	-0.21399
209	0xbe97ff79	-0.29687098
210	0xbcc2fe80	-0.023802996
211	0x3e1c367f	0.15255164
212	0x3d127bc7	0.035762575
213	0xbd3e52dd	-0.046465743
214	0xbe50800c	-0.20361346
215	0xbe3a9014	-0.18219024
216	0x3d9aa2ec	0.07550606
217	0xbdde8b90	-0.10866463
218	0xbddcb50b	-0.10776719
219	0x3c6fb938	0.014631562
220	0x3dd6a66d	0.10480962
221	0x3ed2ccb7	0.4117181
222	0x3e69103a	0.22760096
223	0x3f309cab	0.68989056
224	0x3dc68b35	0.096945204
225	0x3f515659	0.8177238
226	0x3e1e137c	0.1543712
227	0xbee383f9	-0.44436625
228	0x3cd22612	0.025652919
229	0xbdde1616	-0.10844056
230	0xbe06fd60	-0.13182592
231	0xbf1c0143	-0.60939425
232	0xbe997eff	-0.29979703
233	0xbe53b96b	-0.206762
234	0xbd9f3487	-0.07773691
235	0xbea5e363	-0.32400045
236	0x3e2570af	0.16156267
237	0xbf0d0b8d	-0.5509575
238	0xbdf4a615	-0.1194574
239	0xbf204eba	-0.6262013
240	0x3e884541	0.26615337
241	0x3e0ef396	0.13960108
242	0xbda90d2e	-0.08254467
243	0x3aa30f88	0.0012440542
244	0xbdc4b78a	-0.0960532
245	0xbf27d91e	-0.6556567
246	0x3e576fc3	0.21038727
247	0xbd94c82c	-0.07264742
248	0xbdefafd0	-0.117034554
249	0x3c95988b	0.018261215
250	0xbe77b59c	-0.24190372
251	0x3de817b6	0.113326475
252	0xbd330885	-0.043709297
253	0x3e0587bb	0.13040058
254	0xbbe4a5a8	-0.0069777556
255	0x3e557c25	0.20848139

arith.constant9 f4 [64]
0	0x00000000	0.0
1	0x00000000	0.0
2	0x00000000	0.0
3	0x00000000	0.0
4	0x00000000	0.0
5	0x00000000	0.0
6	0x00000000	0.0
7	0x00000000	0.0
8	0x00000000	0.0
9	0x00000000	0.0
10	0x00000000	0.0
11	0x00000000	0.0
12	0x00000000	0.0
13	0x00000000	0.0
14	0x00000000	0.0
15	0x00000000	0.0
16	0x00000000	0.0
17	0x00000000	0.0
18	0x00000000	0.0
19	0x00000000	0.0
20	0x00000000	0.0
21	0x00000000	0.0
22	0x00000000	0.0
23	0x00000000	0.0
24	0x00000000	0.0
25	0x00000000	0.0
26	0x00000000	0.0
27	0x00000000	0.0
28	0x00000000	0.0
29	0x00000000	0.0
30	0x00000000	0.0
31	0x00000000	0.0
32	0x00000000	0.0
33	0x00000000	0.0
34	0x00000000	0.0
35	0x00000000	0.0
36	0x00000000	0.0
37	0x00000000	0.0
38	0x00000000	0.0
39	0x00000000	0.0
40	0x00000000	0.0
41	0x00000000	0.0
42	0x00000000	0.0
43	0x00000000	0.0
44	0x00000000	0.0
45	0x00000000	0.0
46	0x00000000	0.0
47	0x00000000	0.0
48	0x00000000	0.0
49	0x00000000	0.0
50	0x00000000	0.0
51	0x00000000	0.0
52	0x00000000	0.0
53	0x00000000	0.0
54	0x00000000	0.0
55	0x00000000	0.0
56	0x00000000	0.0
57	0x00000000	0.0
58	0x00000000	0.0
59	0x00000000	0.0
60	0x00000000	0.0
61	0x00000000	0.0
62	0x00000000	0.0
63	0x00000000	0.0

functional_1/conv2d_1/convolution f4 [64, 4, 4, 1]
0	0xbd655837	-0.05599233
1	0x3e8a4f47	0.2701361
2	0x3d90da87	0.07072931
3	0x3b85809f	0.0040741707
4	0xbf1247c7	-0.57140774
5	0xbeba7cb9	-0.3642328
6	0xbeaee887	-0.3416178
7	0xbee73c25	-0.45163074
8	0xbc84c122	-0.016205374
9	0xbd10dc56	-0.03536638
10	0xbe71930a	-0.23591247
11	0xbe23d467	-0.15998994
12	0x3ea09606	0.3136446
13	0x3e300410	0.1718905
14	0x3cf0277c	0.029315703
15	0x3e88c5f5	0.2671353
16	0xbe65ce8f	-0.22442077
17	0x3d138867	0.036018755
18	0x3d35be1a	0.044370748
19	0x3dc2b612	0.095073834
20	0xbea9ce57	-0.33165237
21	0x3c1321d5	0.008980234
22	0x3cccd51e	0.025003966
23	0x3e33a27c	0.17542452
24	0xbe3b81d2	-0.18311241
25	0x3dae2110	0.085024
26	0x3ec9583e	0.39325136
27	0x3eae0187	0.3398554
28	0xbea72824	-0.32647812
29	0xbcf32517	-0.029680772
30	0x3e422782	0.18960384
31	0x3dee5807	0.11637884
32	0x3dd22fe9	0.102630444
33	0x3e2822d5	0.16419537
34	0xbe2883dd	-0.16456552
35	0xbea52aea	-0.32259303
36	0x3eae7342	0.3407231
37	0x3ec4c564	0.38431847
38	0xbd743553	-0.059621166
39	0xbe30d418	-0.17268407
40	0xbd8b2d5a	-0.067957595
41	0x3e5838a6	0.2111536
42	0x3d85ad67	0.065272145
43	0x3d89810e	0.06714068
44	0xbeb349ec	-0.35017335
45	0x3cb3c3de	0.021943983
46	0xbd278efe	-0.040907852
47	0xbc4aca03	-0.012377265
48	0x3df05803	0.11735537
49	0xbd45e5ff	-0.048315044
50	0xbabf55eb	-0.0014597749
51	0xbdb7aa14	-0.08967987
52	0x3e4f55cc	0.20247573
53	0xbbef1755	-0.0072964826
54	0xbccc76a1	-0.02495891
55	0xbe2a7a55	-0.16648228
56	0x3e37c0f8	0.17944705
57	0x3c3fb522	0.0117009
58	0xbdded404	-0.108802825
59	0xbe296942	-0.16544059
60	0x3e295067	0.16534577
61	0xbba66fec	-0.00507926
62	0xbddeec73	-0.10884943
63	0xbe4462c4	-0.19178301
64	0xbe26de97	-0.16295849
65	0xbe4e6f2b	-0.20159595
66	0xbe1632f7	-0.14667879
67	0xbddb39ea	-0.107044056
68	0xbd98f18e	-0.07467948
69	0xbcf4f4c8	-0.029901877
70	0xbe0e0017	-0.13867222
71	0xbd6ea205	-0.058259983
72	0x3d081128	0.033219486
73	0xbd58743e	-0.052845232
74	0xbcc6f8b2	-0.024288509
75	0x3e204efa	0.15655127
76	0x3e61f88a	0.22067466
77	0x3e3b41ce	0.18286821
78	0x3e8ad7ed	0.27117863
79	0x3e9a5c0a	0.30148345
80	0x3e9085d5	0.28227106
81	0x3e407f3f	0.1879854
82	0x3e2b2b90	0.16715837
83	0xbc57fac1	-0.013182343
84	0x3df984ba	0.12183519
85	0x3d8bfaa9	0.06834919
86	0xbd10a387	-0.0353122
87	0xbca2daac	-0.019879662
88	0x3d94e4fe	0.07270239
89	0x3d46b442	0.04851175
90	0xbe239e52	-0.15978363
91	0xbdb9f46b	-0.09079822
92	0x3a8b4004	0.0010623937
93	0x3d0618b0	0.032738388
94	0x3c8fcf5c	0.017554931
95	0x3d3f009f	0.04663145
96	0xbe315e0c	-0.17321032
97	0x3be6d72c	0.0070446935
98	0xbea2d92d	-0.31806317
99	0xbe2b9d18	-0.16759145
100	0x3e3105f5	0.17287429
101	0x3eb7f6a5	0.35930362
102	0xbdbee3dc	-0.093208045
103	0xbb67cbc4	-0.0035369257
104	0x3f17306e	0.5905827
105	0x3f25b230	0.6472502
106	0x3cae02fd	0.02124166
107	0xbd168861	-0.036751155
108	0x3e30eaf3	0.17277126
109	0x3e0cbeb6	0.13744625
110	0xbe891a63	-0.26777944
111	0xbe39add4	-0.18132716
112	0x3c861c51	0.016370924
113	0xb9a255aa	-0.00030962873
114	0x3e1b3a13	0.15158872
115	0x3c6ffeba	0.014648134
116	0xbbc53add	-0.00601898
117	0x3dfa74b2	0.12229289
118	0x3dfc6679	0.123242326
119	0x3e1c7424	0.15278679
120	0x3d404d4a	0.04694871
121	0x3c23a36d	0.009987694
122	0x3d747439	0.05968115
123	0x3c165d69	0.009177544
124	0xbc7bea60	-0.015375704
125	0x3dfaef0c	0.12252626
126	0xbbc0dff6	-0.005886073
127	0xbcb3f1dd	-0.021965915
128	0xbd29cc7a	-0.04145477
129	0x3dbe357f	0.09287547
130	0x3e8f4eab	0.27989706
131	0xbc1690f4	-0.009189833
132	0xbe0df484	-0.13862807
133	0x3de506b7	0.111829214
134	0x3ed5c6ae	0.41753143
135	0x3dee4d46	0.116358325
136	0xbe36cede	-0.17852351
137	0xbd28e56e	-0.041234426
138	0x3e16922f	0.14704202
139	0x3e044f73	0.12920932
140	0xbe95c213	-0.2924963
141	0xbe5012d2	-0.2031968
142	0x3dc242b1	0.094853766
143	0xbdf4758a	-0.11936481
144	0xbc123d40	-0.008925736
145	0xbdd8019e	-0.105471835
146	0xbe38cb15	-0.1804622
147	0xbe576984	-0.21036345
148	0xbc055a89	-0.008139261
149	0xbdcd690f	-0.10029804
150	0xbe28893f	-0.16458605
151	0xbe6a90fb	-0.22906868
152	0x3e439a94	0.19101936
153	0x3e2ea417	0.17054783
154	0x3d83cc90	0.064355016
155	0xbda99cee	-0.08281885
156	0x3e6c242c	0.23060673
157	0x3e18ac25	0.14909418
158	0x3dfb36d3	0.12266316
159	0x3dc04740	0.0938859
160	0xbcb67007	-0.022270216
161	0x3dd48a50	0.103779435
162	0xbeedfdbd	-0.4648265
163	0xbf2fadac	-0.6862438
164	0xbcb1fe7d	-0.021727795
165	0xbdf84ac7	-0.12123638
166	0xbf0c08b4	-0.5470078
167	0xbf51b498	-0.8191619
168	0xbd9a1254	-0.07523027
169	0x3d216f00	0.0394125
170	0xbee27ce8	-0.4423592
171	0xbf13953d	-0.57649595
172	0x3e02d58e	0.12776777
173	0x3d5548da	0.05207143
174	0xbe4b3d9f	-0.19847725
175	0xbe9893e6	-0.29800338
176	0x3eca44d7	0.39505646
177	0x3e7903cd	0.24317856
178	0x3d2daf37	0.042403426
179	0xbe85bbd9	-0.2611988
180	0x3e5bf425	0.21479852
181	0xbd75edbc	-0.060041174
182	0xbdc16904	-0.09443858
183	0xbe8d8595	-0.27640978
184	0x3df4109c	0.119172305
185	0xbdf8b356	-0.121435806
186	0xbdc79314	-0.0974485
187	0xbe0e0ed4	-0.13872844
188	0x3e4d622b	0.2005698
189	0x3c9f6609	0.019457834
190	0xbd232673	-0.03983159
191	0xbe3b3bbf	-0.1828451
192	0xbd559378	-0.05214259
193	0xbea3bb77	-0.31978962
194	0xbde26bc8	-0.11055714
195	0xbcc655db	-0.024210861
196	0x3e6b2304	0.22962576
197	0xbe6ca847	-0.23111068
198	0x3dc73aff	0.097280495
199	0x3d8d1980	0.06889629
200	0x3e62f282	0.22162822
201	0x3b9625f8	0.004582163
202	0x3e3b8593	0.18312673
203	0x3e09d1bc	0.13458914
204	0x3dfa0de2	0.12209679
205	0xbe22c910	-0.15897012
206	0xbc239c15	-0.009985943
207	0xbd9a46fa	-0.07533069
208	0x3d9ad8e0	0.07560897
209	0x3d9a1d68	0.0752514
210	0xbca6be5c	-0.020354442
211	0x3b596d44	0.00331767
212	0x3db2ce6e	0.087307796
213	0xbd58ba8d	-0.052912284
214	0xbe6922a6	-0.22767124
215	0x3dd28b58	0.10280484
216	0x3cc68fb1	0.02423844
217	0xbdb361a9	-0.087588616
218	0xbde36af2	-0.111043826
219	0xbc5d0e8d	-0.013492239
220	0x3d4763d4	0.048679188
221	0x3c927b12	0.01788095
222	0xbdee730a	-0.11643036
223	0x3e61fbe8	0.22068751
224	0x3ccc3a9a	0.024930287
225	0x3dbd2442	0.09235431
226	0x3dd0c94f	0.101946466
227	0x3e3a51e5	0.18195303
228	0xbe0089a2	-0.12552503
229	0xbe79583f	-0.2435007
230	0xbd6cb839	-0.057792876
231	0xbdb8525a	-0.09000082
232	0xbde4e196	-0.111758396
233	0xbe513c17	-0.20433079
234	0xbe049f66	-0.1295143
235	0xbdf38bec	-0.11891922
236	0x3ea1bb70	0.31588316
237	0x3d7793d1	0.060443703
238	0x3d1c863d	0.038213957
239	0xbd28f28f	-0.041246947
240	0x3d021d61	0.0317663
241	0xbe8c7ef4	-0.27440608
242	0xbcd7c182	-0.026337389
243	0x3e1bd12a	0.15216509
244	0x3d3780aa	0.044800438
245	0xbe905528	-0.2818997
246	0x3e017a97	0.1264442
247	0x3e0760d0	0.13220525
248	0xbdecbcc6	-0.11559443
249	0xbe62b908	-0.22140896
250	0x3e363dd5	0.17797025
251	0x3dc126ff	0.09431266
252	0xbcbb5100	-0.022865772
253	0xbe2a8543	-0.16652398
254	0x3de16dc2	0.11007263
255	0x3db6b0fe	0.08920477
