model_exports/model_quant.tflite (tflite, 25368 bytes, 7 tensors)

tfl.pseudo_qconst1 i1 [4, 64]
0	0x0a	10
1	0xdf	-33
2	0xec	-20
3	0xc8	-56
4	0x13	19
5	0xe7	-25
6	0xed	-19
7	0xae	-82
8	0x81	-127
9	0xa4	-92
10	0x8f	-113
11	0xd7	-41
12	0x00	0
13	0xf1	-15
14	0x1c	28
15	0xd0	-48
16	0xe0	-32
17	0xd3	-45
18	0x0b	11
19	0x29	41
20	0xbf	-65
21	0x00	0
22	0x18	24
23	0xdc	-36
24	0xf7	-9
25	0xf1	-15
26	0xda	-38
27	0x21	33
28	0xf8	-8
29	0xd2	-46
30	0xcf	-49
31	0xb0	-80
32	0x05	5
33	0xdf	-33
34	0xfb	-5
35	0xd2	-46
36	0x1f	31
37	0x10	16
38	0xed	-19
39	0xf1	-15
40	0xfc	-4
41	0xf1	-15
42	0xf6	-10
43	0xcf	-49
44	0x2f	47
45	0x02	2
46	0xb3	-77
47	0x11	17
48	0xf3	-13
49	0xf8	-8
50	0x22	34
51	0xdd	-35
52	0xda	-38
53	0xbe	-66
54	0x05	5
55	0xe9	-23
56	0xa3	-93
57	0xcb	-53
58	0x15	21
59	0xf5	-11
60	0xd4	-44
61	0x01	1
62	0xd7	-41
63	0xbc	-68
64	0x52	82
65	0x2b	43
66	0xd9	-39
67	0xc1	-63
68	0xeb	-21
69	0x55	85
70	0xec	-20
71	0xf3	-13
72	0x1c	28
73	0xe4	-28
74	0x08	8
75	0x22	34
76	0xa9	-87
77	0x20	32
78	0xef	-17
79	0x30	48
80	0xf4	-12
81	0xbb	-69
82	0xa9	-87
83	0xaf	-81
84	0x5a	90
85	0x0d	13
86	0xc1	-63
87	0xe6	-26
88	0x1b	27
89	0xe9	-23
90	0x09	9
91	0x9c	-100
92	0x0c	12
93	0x2c	44
94	0x2a	42
95	0x3b	59
96	0x2b	43
97	0xf7	-9
98	0x01	1
99	0xf8	-8
100	0x87	-121
101	0x22	34
102	0x28	40
103	0x20	32
104	0x2f	47
105	0xc9	-55
106	0xe0	-32
107	0xfc	-4
108	0xe1	-31
109	0xf0	-16
110	0xf7	-9
111	0x2a	42
112	0x07	7
113	0xfd	-3
114	0xad	-83
115	0xc8	-56
116	0xac	-84
117	0xf5	-11
118	0x20	32
119	0xf6	-10
120	0x0b	11
121	0x24	36
122	0x3d	61
123	0xeb	-21
124	0x09	9
125	0x7f	127
126	0x4f	79
127	0xb4	-76
128	0x97	-105
129	0x23	35
130	0xdb	-37
131	0x4c	76
132	0xd9	-39
133	0xe6	-26
134	0xac	-84
135	0x03	3
136	0xf4	-12
137	0x43	67
138	0x06	6
139	0xa2	-94
140	0x43	67
141	0x20	32
142	0xdc	-36
143	0xfb	-5
144	0x29	41
145	0x35	53
146	0xd2	-46
147	0x98	-104
148	0x37	55
149	0xe0	-32
150	0xf3	-13
151	0x34	52
152	0x1a	26
153	0x0c	12
154	0x20	32
155	0x1b	27
156	0x11	17
157	0x1b	27
158	0xe9	-23
159	0xdd	-35
160	0xab	-85
161	0x0a	10
162	0x32	50
163	0xe4	-28
164	0x7e	126
165	0x05	5
166	0x2c	44
167	0xca	-54
168	0x94	-108
169	0x23	35
170	0x29	41
171	0xc7	-57
172	0x9a	-102
173	0x33	51
174	0x0b	11
175	0xda	-38
176	0xd9	-39
177	0xd8	-40
178	0x7f	127
179	0x0f	15
180	0x72	114
181	0x16	22
182	0x25	37
183	0xe9	-23
184	0x98	-104
185	0xf5	-11
186	0xdc	-36
187	0xd6	-42
188	0xe9	-23
189	0xc6	-58
190	0xa3	-93
191	0xe3	-29
192	0xd7	-41
193	0xf7	-9
194	0xeb	-21
195	0x14	20
196	0x1e	30
197	0xd8	-40
198	0x42	66
199	0x02	2
200	0xe7	-25
201	0x24	36
202	0xed	-19
203	0xf2	-14
204	0xa7	-89
205	0x04	4
206	0x2c	44
207	0xf0	-16
208	0xef	-17
209	0xfa	-6
210	0x46	70
211	0x1f	31
212	0xfb	-5
213	0x23	35
214	0x31	49
215	0xe4	-28
216	0xdb	-37
217	0x0d	13
218	0x00	0
219	0x0a	10
220	0xd6	-42
221	0x0f	15
222	0x00	0
223	0xf0	-16
224	0x14	20
225	0xd5	-43
226	0xcf	-49
227	0x23	35
228	0xda	-38
229	0xe2	-30
230	0xde	-34
231	0xfb	-5
232	0x0e	14
233	0x03	3
234	0xd4	-44
235	0xfc	-4
236	0x25	37
237	0xe1	-31
238	0x14	20
239	0xfa	-6
240	0xdf	-33
241	0xfd	-3
242	0xa1	-95
243	0x14	20
244	0xff	-1
245	0x29	41
246	0x81	-127
247	0x30	48
248	0x2b	43
249	0x13	19
250	0x03	3
251	0x21	33
252	0xe1	-31
253	0xae	-82
254	0xfa	-6
255	0x1b	27

tfl.pseudo_qconst3 i1 [64, 16]
0	0x20	32
1	0xc8	-56
2	0x81	-127
3	0xac	-84
4	0x95	-107
5	0x98	-104
6	0x7a	122
7	0xd6	-42
8	0x84	-124
9	0xde	-34
10	0x34	52
11	0xcf	-49
12	0xd6	-42
13	0xc3	-61
14	0x01	1
15	0xc1	-63
16	0x66	102
17	0x2a	42
18	0xc8	-56
19	0x47	71
20	0x2d	45
21	0xe4	-28
22	0x02	2
23	0x0a	10
24	0x54	84
25	0x2f	47
26	0xfe	-2
27	0x73	115
28	0x20	32
29	0x43	67
30	0x7f	127
31	0xd7	-41
32	0xe6	-26
33	0xd5	-43
34	0xdf	-33
35	0xce	-50
36	0x30	48
37	0x08	8
38	0xc2	-62
39	0x81	-127
40	0x01	1
41	0x1d	29
42	0x87	-121
43	0xf6	-10
44	0xa6	-90
45	0xad	-83
46	0x04	4
47	0xc0	-64
48	0xd7	-41
49	0x73	115
50	0x84	-124
51	0x1b	27
52	0x0f	15
53	0xd0	-48
54	0xf0	-16
55	0x81	-127
56	0xe3	-29
57	0x50	80
58	0xba	-70
59	0x07	7
60	0x15	21
61	0xcc	-52
62	0xe2	-30
63	0x8d	-115
64	0xa3	-93
65	0x01	1
66	0xcd	-51
67	0x7b	123
68	0x18	24
69	0x55	85
70	0x8d	-115
71	0x5d	93
72	0xa7	-89
73	0xd5	-43
74	0x5e	94
75	0xe5	-27
76	0xa1	-95
77	0x3f	63
78	0x81	-127
79	0xfd	-3
80	0x7d	125
81	0x0a	10
82	0xe9	-23
83	0x04	4
84	0x0b	11
85	0x0f	15
86	0x1c	28
87	0xca	-54
88	0x15	21
89	0xf9	-7
90	0x18	24
91	0x81	-127
92	0x3b	59
93	0x01	1
94	0x01	1
95	0xfa	-6
96	0xc9	-55
97	0x02	2
98	0x55	85
99	0x59	89
100	0x0e	14
101	0xcf	-49
102	0x2a	42
103	0x2a	42
104	0xdf	-33
105	0x10	16
106	0x47	71
107	0xa4	-92
108	0xc5	-59
109	0x81	-127
110	0x9e	-98
111	0x0b	11
112	0xeb	-21
113	0x3c	60
114	0xea	-22
115	0x17	23
116	0xed	-19
117	0x76	118
118	0x54	84
119	0x81	-127
120	0xf0	-16
121	0x3b	59
122	0x92	-110
123	0x31	49
124	0x22	34
125	0x21	33
126	0xc4	-60
127	0x49	73
128	0xad	-83
129	0xfd	-3
130	0x1d	29
131	0xf4	-12
132	0xf2	-14
133	0xed	-19
134	0x48	72
135	0xe3	-29
136	0x1f	31
137	0xfa	-6
138	0xee	-18
139	0xf0	-16
140	0xc9	-55
141	0x0a	10
142	0x7f	127
143	0x2e	46
144	0x00	0
145	0x7f	127
146	0xeb	-21
147	0x3f	63
148	0x70	112
149	0x9b	-101
150	0x6b	107
151	0x9f	-97
152	0xfa	-6
153	0x58	88
154	0xaa	-86
155	0xeb	-21
156	0x00	0
157	0xb7	-73
158	0xe4	-28
159	0x2c	44
160	0x11	17
161	0x2d	45
162	0x04	4
163	0x07	7
164	0xfe	-2
165	0x39	57
166	0x57	87
167	0xeb	-21
168	0x48	72
169	0x0c	12
170	0x0d	13
171	0x7f	127
172	0x44	68
173	0x14	20
174	0x41	65
175	0x74	116
176	0x4b	75
177	0xd9	-39
178	0xaa	-86
179	0x81	-127
180	0xf0	-16
181	0xa9	-87
182	0x5b	91
183	0xd3	-45
184	0xd2	-46
185	0xf1	-15
186	0xf7	-9
187	0xce	-50
188	0xb5	-75
189	0xbd	-67
190	0xc8	-56
191	0xfc	-4
192	0xf9	-7
193	0xff	-1
194	0xc3	-61
195	0x1a	26
196	0x29	41
197	0xb1	-79
198	0x09	9
199	0x81	-127
200	0x42	66
201	0xfb	-5
202	0xa4	-92
203	0xf2	-14
204	0x30	48
205	0xae	-82
206	0xf0	-16
207	0xd0	-48
208	0xa8	-88
209	0xff	-1
210	0x17	23
211	0xf0	-16
212	0x14	20
213	0x16	22
214	0x43	67
215	0x17	23
216	0x11	17
217	0x10	16
218	0xe7	-25
219	0x10	16
220	0x41	65
221	0xe7	-25
222	0x7f	127
223	0x32	50
224	0xc2	-62
225	0x57	87
226	0xfa	-6
227	0x2c	44
228	0xe2	-30
229	0xda	-38
230	0xa2	-94
231	0xe7	-25
232	0x81	-127
233	0x12	18
234	0xd2	-46
235	0xa1	-95
236	0x0e	14
237	0x56	86
238	0xae	-82
239	0x23	35
240	0x3c	60
241	0x4e	78
242	0x3d	61
243	0x36	54
244	0xbd	-67
245	0x09	9
246	0xec	-20
247	0x5b	91
248	0xd8	-40
249	0xee	-18
250	0x53	83
251	0x59	89
252	0x26	38
253	0xce	-50
254	0x7f	127
255	0x2b	43

tfl.pseudo_qconst4 i1 [16, 3, 3, 16]
0	0xfc	-4
1	0x0d	13
2	0xeb	-21
3	0xff	-1
4	0xef	-17
5	0x07	7
6	0xe2	-30
7	0xf4	-12
8	0x02	2
9	0x35	53
10	0x58	88
11	0xfc	-4
12	0xfd	-3
13	0x3e	62
14	0x0a	10
15	0x26	38
16	0xfc	-4
17	0x2b	43
18	0x05	5
19	0x08	8
20	0xf6	-10
21	0xf9	-7
22	0x07	7
23	0x05	5
24	0xea	-22
25	0x38	56
26	0x7f	127
27	0xf9	-7
28	0xe9	-23
29	0xf9	-7
30	0xf9	-7
31	0x39	57
32	0xdd	-35
33	0x1c	28
34	0x22	34
35	0xec	-20
36	0xd6	-42
37	0x2e	46
38	0x0d	13
39	0x25	37
40	0x15	21
41	0x07	7
42	0x78	120
43	0xfa	-6
44	0xfe	-2
45	0x1f	31
46	0x15	21
47	0x1c	28
48	0x0b	11
49	0xfb	-5
50	0xd0	-48
51	0xea	-22
52	0xe7	-25
53	0x14	20
54	0xeb	-21
55	0x09	9
56	0xe6	-26
57	0x1c	28
58	0x5a	90
59	0x0e	14
60	0x07	7
61	0x3d	61
62	0xeb	-21
63	0x18	24
64	0x1a	26
65	0x16	22
66	0xe0	-32
67	0x09	9
68	0xdb	-37
69	0x01	1
70	0x01	1
71	0xf8	-8
72	0xe2	-30
73	0x0d	13
74	0x23	35
75	0xf8	-8
76	0xfd	-3
77	0xfb	-5
78	0x07	7
79	0x29	41
80	0xe7	-25
81	0xf8	-8
82	0xd5	-43
83	0x07	7
84	0xcd	-51
85	0x03	3
86	0x03	3
87	0x2a	42
88	0xf3	-13
89	0x18	24
90	0x1d	29
91	0x25	37
92	0x02	2
93	0x1c	28
94	0xfb	-5
95	0x19	25
96	0xf5	-11
97	0xe9	-23
98	0x00	0
99	0xe6	-26
100	0xe5	-27
101	0xfa	-6
102	0x08	8
103	0xf6	-10
104	0xf2	-14
105	0x0e	14
106	0x29	41
107	0x17	23
108	0xf6	-10
109	0x21	33
110	0xf6	-10
111	0x21	33
112	0xed	-19
113	0xee	-18
114	0xd1	-47
115	0xf1	-15
116	0xfe	-2
117	0xf4	-12
118	0x07	7
119	0x07	7
120	0xef	-17
121	0xf2	-14
122	0x29	41
123	0xf3	-13
124	0xfc	-4
125	0xfd	-3
126	0xec	-20
127	0x40	64
128	0xd5	-43
129	0xde	-34
130	0xba	-70
131	0xe2	-30
132	0xdd	-35
133	0xf3	-13
134	0xff	-1
135	0x33	51
136	0xeb	-21
137	0x0f	15
138	0x44	68
139	0x1c	28
140	0xf6	-10
141	0x05	5
142	0xdb	-37
143	0x15	21
144	0xc6	-58
145	0x1d	29
146	0x18	24
147	0x2f	47
148	0x00	0
149	0x18	24
150	0x07	7
151	0xec	-20
152	0xf2	-14
153	0xd7	-41
154	0x29	41
155	0xe4	-28
156	0xd6	-42
157	0x25	37
158	0xe2	-30
159	0x03	3
160	0xce	-50
161	0x0b	11
162	0x08	8
163	0x19	25
164	0x02	2
165	0x28	40
166	0xee	-18
167	0xcb	-53
168	0x1c	28
169	0xf8	-8
170	0x35	53
171	0xd0	-48
172	0xda	-38
173	0x00	0
174	0xec	-20
175	0x10	16
176	0xb9	-71
177	0x1d	29
178	0xfd	-3
179	0x1a	26
180	0xf1	-15
181	0x26	38
182	0xdd	-35
183	0x92	-110
184	0x41	65
185	0xf9	-7
186	0x3b	59
187	0xd6	-42
188	0xea	-22
189	0x12	18
190	0x0e	14
191	0x0e	14
192	0xfc	-4
193	0xfe	-2
194	0xf4	-12
195	0x0f	15
196	0xf1	-15
197	0xfe	-2
198	0x94	-108
199	0x1b	27
200	0x2f	47
201	0xed	-19
202	0x1a	26
203	0xf2	-14
204	0xd6	-42
205	0xe9	-23
206	0xda	-38
207	0xf0	-16
208	0xe8	-24
209	0xf3	-13
210	0xf3	-13
211	0x05	5
212	0xe7	-25
213	0x1d	29
214	0xbf	-65
215	0xfd	-3
216	0x3e	62
217	0x05	5
218	0x30	48
219	0xec	-20
220	0xf7	-9
221	0x04	4
222	0xc2	-62
223	0x21	33
224	0xf1	-15
225	0x09	9
226	0x0f	15
227	0xc7	-57
228	0xd2	-46
229	0x04	4
230	0xa2	-94
231	0xf3	-13
232	0x7f	127
233	0xee	-18
234	0x3d	61
235	0x12	18
236	0xf1	-15
237	0x12	18
238	0xc9	-55
239	0xfc	-4
240	0x07	7
241	0x03	3
242	0x1c	28
243	0x14	20
244	0xd1	-47
245	0xf1	-15
246	0xef	-17
247	0x4d	77
248	0x40	64
249	0xfb	-5
250	0xfe	-2
251	0x06	6
252	0xcd	-51
253	0xdd	-35
254	0xc7	-57
255	0x20	32

tfl.pseudo_qconst5 i1 [1, 3, 3, 16]
0	0x0e	14
1	0xe5	-27
2	0x0a	10
3	0x81	-127
4	0xef	-17
5	0xed	-19
6	0xf4	-12
7	0xc1	-63
8	0x81	-127
9	0xdc	-36
10	0x86	-122
11	0x9e	-98
12	0xd9	-39
13	0xb7	-73
14	0x7f	127
15	0x02	2
16	0x18	24
17	0xc9	-55
18	0x07	7
19	0x97	-105
20	0xf2	-14
21	0xc9	-55
22	0x04	4
23	0xe2	-30
24	0x9a	-102
25	0xc9	-55
26	0x87	-121
27	0xd8	-40
28	0xc8	-56
29	0xea	-22
30	0x7e	126
31	0xe6	-26
32	0x7f	127
33	0xe7	-25
34	0x15	21
35	0xbc	-68
36	0x79	121
37	0x81	-127
38	0xe7	-25
39	0x45	69
40	0xd3	-45
41	0x00	0
42	0xb6	-74
43	0x81	-127
44	0xd0	-48
45	0xc4	-60
46	0x2c	44
47	0xa8	-88
48	0x04	4
49	0x81	-127
50	0x5e	94
51	0x2e	46
52	0xf6	-10
53	0xd8	-40
54	0x1e	30
55	0xad	-83
56	0xb2	-78
57	0xc1	-63
58	0x81	-127
59	0x15	21
60	0xe3	-29
61	0x81	-127
62	0xf4	-12
63	0xa5	-91
64	0x25	37
65	0xc7	-57
66	0x7f	127
67	0xf1	-15
68	0xec	-20
69	0xe0	-32
70	0x1d	29
71	0x1d	29
72	0xef	-17
73	0x8e	-114
74	0xc3	-61
75	0xcf	-49
76	0x02	2
77	0x0e	14
78	0x40	64
79	0x81	-127
80	0xfe	-2
81	0xd5	-43
82	0x7f	127
83	0xb9	-71
84	0x7f	127
85	0xa6	-90
86	0xfc	-4
87	0x76	118
88	0xd3	-45
89	0x81	-127
90	0x05	5
91	0xa1	-95
92	0xce	-50
93	0xde	-34
94	0x78	120
95	0xa6	-90
96	0xf2	-14
97	0xba	-70
98	0x70	112
99	0x4c	76
100	0x1b	27
101	0x06	6
102	0x7f	127
103	0xd3	-45
104	0xfd	-3
105	0xc0	-64
106	0x4c	76
107	0xf6	-10
108	0x81	-127
109	0x90	-112
110	0xff	-1
111	0xa6	-90
112	0xe3	-29
113	0xd8	-40
114	0x4c	76
115	0x53	83
116	0x0d	13
117	0x08	8
118	0x2b	43
119	0x38	56
120	0xe6	-26
121	0xb1	-79
122	0x21	33
123	0x00	0
124	0x08	8
125	0x28	40
126	0x1c	28
127	0xea	-22
128	0xee	-18
129	0x02	2
130	0x67	103
131	0x22	34
132	0x2d	45
133	0xb6	-74
134	0x1d	29
135	0x7f	127
136	0x95	-107
137	0xa0	-96
138	0x3b	59
139	0xe8	-24
140	0xfb	-5
141	0xc9	-55
142	0x41	65
143	0xfc	-4

tfl.pseudo_qconst9 i1 [16, 3, 3, 64]
0	0x25	37
1	0x32	50
2	0x0f	15
3	0x44	68
4	0x40	64
5	0x09	9
6	0x42	66
7	0xda	-38
8	0xc6	-58
9	0x02	2
10	0x06	6
11	0xd7	-41
12	0xf4	-12
13	0x07	7
14	0x2b	43
15	0xdf	-33
16	0x1e	30
17	0x39	57
18	0x0e	14
19	0x30	48
20	0x06	6
21	0xf4	-12
22	0xde	-34
23	0xdb	-37
24	0xbe	-66
25	0xfd	-3
26	0x1c	28
27	0xf0	-16
28	0x02	2
29	0x12	18
30	0x20	32
31	0x13	19
32	0x20	32
33	0xec	-20
34	0x07	7
35	0xff	-1
36	0x14	20
37	0x24	36
38	0x0a	10
39	0xfe	-2
40	0x2f	47
41	0xec	-20
42	0xdf	-33
43	0x06	6
44	0x09	9
45	0x34	52
46	0x44	68
47	0x21	33
48	0x02	2
49	0x02	2
50	0xae	-82
51	0xd5	-43
52	0xdf	-33
53	0xf6	-10
54	0xea	-22
55	0x03	3
56	0x05	5
57	0x11	17
58	0x13	19
59	0x3f	63
60	0xfb	-5
61	0x41	65
62	0xdd	-35
63	0x01	1
64	0x60	96
65	0xd6	-42
66	0x02	2
67	0x41	65
68	0x16	22
69	0x0c	12
70	0xe4	-28
71	0xde	-34
72	0xe1	-31
73	0x11	17
74	0x2a	42
75	0xe7	-25
76	0xff	-1
77	0xee	-18
78	0x04	4
79	0x03	3
80	0x34	52
81	0x1e	30
82	0x14	20
83	0x15	21
84	0xe5	-27
85	0x2d	45
86	0xcd	-51
87	0xfd	-3
88	0x0a	10
89	0xfa	-6
90	0x04	4
91	0x08	8
92	0xf4	-12
93	0x1d	29
94	0x10	16
95	0x44	68
96	0xef	-17
97	0xde	-34
98	0x1e	30
99	0x23	35
100	0x10	16
101	0x44	68
102	0x04	4
103	0x1f	31
104	0x3a	58
105	0xfb	-5
106	0xd2	-46
107	0x03	3
108	0xfe	-2
109	0x14	20
110	0x39	57
111	0xfb	-5
112	0xff	-1
113	0x07	7
114	0xa5	-91
115	0xd7	-41
116	0xcf	-49
117	0x16	22
118	0xcf	-49
119	0xf2	-14
120	0xf6	-10
121	0x1a	26
122	0xe3	-29
123	0x51	81
124	0xda	-38
125	0x38	56
126	0xe1	-31
127	0x24	36
128	0x4b	75
129	0xe2	-30
130	0xf8	-8
131	0x07	7
132	0x06	6
133	0xfc	-4
134	0xcf	-49
135	0x0f	15
136	0xd5	-43
137	0x39	57
138	0x26	38
139	0xe3	-29
140	0x1e	30
141	0xf1	-15
142	0xec	-20
143	0xf9	-7
144	0x7f	127
145	0x2d	45
146	0xfa	-6
147	0xe4	-28
148	0x47	71
149	0x70	112
150	0xda	-38
151	0xe0	-32
152	0x1a	26
153	0xe4	-28
154	0xd7	-41
155	0x13	19
156	0x00	0
157	0x19	25
158	0x1b	27
159	0x27	39
160	0xd8	-40
161	0xc1	-63
162	0x10	16
163	0x46	70
164	0x0a	10
165	0x41	65
166	0xfe	-2
167	0x2f	47
168	0x67	103
169	0x48	72
170	0xb8	-72
171	0xfd	-3
172	0x08	8
173	0x0a	10
174	0x0f	15
175	0xf8	-8
176	0xf5	-11
177	0x15	21
178	0xe5	-27
179	0xe2	-30
180	0xbd	-67
181	0x20	32
182	0x96	-106
183	0x08	8
184	0xf7	-9
185	0xf1	-15
186	0xb6	-74
187	0x61	97
188	0xd2	-46
189	0xec	-20
190	0x14	20
191	0x07	7
192	0x41	65
193	0x00	0
194	0x0e	14
195	0x29	41
196	0x0b	11
197	0x30	48
198	0xef	-17
199	0xb4	-76
200	0xd5	-43
201	0x03	3
202	0x09	9
203	0xf4	-12
204	0xf7	-9
205	0xd2	-46
206	0x2f	47
207	0x0d	13
208	0x14	20
209	0x03	3
210	0xff	-1
211	0x0f	15
212	0xee	-18
213	0x22	34
214	0xe6	-26
215	0xf4	-12
216	0xe7	-25
217	0xd4	-44
218	0xd1	-47
219	0xd4	-44
220	0xed	-19
221	0x05	5
222	0xf3	-13
223	0x25	37
224	0x0a	10
225	0x00	0
226	0x21	33
227	0xcf	-49
228	0xde	-34
229	0xee	-18
230	0x07	7
231	0x04	4
232	0xf5	-11
233	0xf7	-9
234	0xe1	-31
235	0xfa	-6
236	0xce	-50
237	0x1e	30
238	0x10	16
239	0x09	9
240	0xdd	-35
241	0xfe	-2
242	0xf8	-8
243	0x06	6
244	0xdc	-36
245	0xd7	-41
246	0x2c	44
247	0xec	-20
248	0xf9	-7
249	0x05	5
250	0xb1	-79
251	0x40	64
252	0x01	1
253	0x13	19
254	0xf0	-16
255	0xf5	-11

tfl.pseudo_qconst10 i1 [1, 3, 3, 64]
0	0xd8	-40
1	0x4e	78
2	0x0f	15
3	0xd4	-44
4	0x27	39
5	0x8e	-114
6	0x78	120
7	0xdc	-36
8	0x61	97
9	0x59	89
10	0x7f	127
11	0xd2	-46
12	0xca	-54
13	0x30	48
14	0x1a	26
15	0x57	87
16	0xad	-83
17	0x23	35
18	0x7a	122
19	0x81	-127
20	0x7f	127
21	0x05	5
22	0x7f	127
23	0x67	103
24	0x90	-112
25	0x4b	75
26	0xcf	-49
27	0x05	5
28	0x7f	127
29	0x7f	127
30	0xa1	-95
31	0x46	70
32	0xeb	-21
33	0xf9	-7
34	0xef	-17
35	0x9c	-100
36	0x84	-124
37	0xd1	-47
38	0xdb	-37
39	0x16	22
40	0xf6	-10
41	0x06	6
42	0xab	-85
43	0x7f	127
44	0x42	66
45	0xc8	-56
46	0x9b	-101
47	0x81	-127
48	0x94	-108
49	0x7f	127
50	0x7f	127
51	0x0c	12
52	0x2f	47
53	0x81	-127
54	0x1b	27
55	0x7f	127
56	0x81	-127
57	0xd4	-44
58	0x34	52
59	0xfe	-2
60	0x0b	11
61	0xaa	-86
62	0x42	66
63	0xb0	-80
64	0xfb	-5
65	0xed	-19
66	0xf7	-9
67	0xaf	-81
68	0xea	-22
69	0xca	-54
70	0x84	-124
71	0xba	-70
72	0x7d	125
73	0x78	120
74	0xc4	-60
75	0x01	1
76	0xb6	-74
77	0xd0	-48
78	0xf4	-12
79	0x37	55
80	0x8b	-117
81	0xea	-22
82	0xd3	-45
83	0x0e	14
84	0x0e	14
85	0x23	35
86	0x6f	111
87	0x29	41
88	0x08	8
89	0xec	-20
90	0xd6	-42
91	0xf3	-13
92	0x44	68
93	0x7a	122
94	0xfd	-3
95	0x16	22
96	0x9e	-98
97	0xb1	-79
98	0x24	36
99	0xf0	-16
100	0xb7	-73
101	0xfc	-4
102	0x35	53
103	0x7d	125
104	0x25	37
105	0x64	100
106	0xe1	-31
107	0x58	88
108	0xa8	-88
109	0xe8	-24
110	0x9a	-102
111	0x06	6
112	0x04	4
113	0x4c	76
114	0x44	68
115	0xe8	-24
116	0x61	97
117	0xf9	-7
118	0xff	-1
119	0x26	38
120	0xb8	-72
121	0xee	-18
122	0x4f	79
123	0xcc	-52
124	0x07	7
125	0xb1	-79
126	0x1b	27
127	0x10	16
128	0x50	80
129	0xb1	-79
130	0x4a	74
131	0xaa	-86
132	0x17	23
133	0x52	82
134	0xe8	-24
135	0x2c	44
136	0x76	118
137	0x7f	127
138	0x90	-112
139	0x36	54
140	0x81	-127
141	0x9d	-99
142	0xd5	-43
143	0x90	-112
144	0x81	-127
145	0x1a	26
146	0x70	112
147	0x7e	126
148	0x8f	-113
149	0x61	97
150	0x0e	14
151	0x5d	93
152	0x69	105
153	0x8e	-114
154	0x81	-127
155	0x3f	63
156	0xed	-19
157	0x68	104
158	0xd1	-47
159	0xf7	-9
160	0x81	-127
161	0x81	-127
162	0x38	56
163	0x7f	127
164	0x81	-127
165	0x7f	127
166	0x52	82
167	0x74	116
168	0x4b	75
169	0x7f	127
170	0xab	-85
171	0x1e	30
172	0x90	-112
173	0xdd	-35
174	0xd0	-48
175	0x2f	47
176	0x3e	62
177	0x35	53
178	0xd1	-47
179	0x3c	60
180	0x1d	29
181	0x91	-111
182	0x81	-127
183	0xde	-34
184	0xfc	-4
185	0x2c	44
186	0x5b	91
187	0x90	-112
188	0x35	53
189	0x7f	127
190	0xcb	-53
191	0xc2	-62
192	0x31	49
193	0x7f	127
194	0xa2	-94
195	0x1f	31
196	0x81	-127
197	0x8c	-116
198	0xe1	-31
199	0x14	20
200	0x7f	127
201	0xe9	-23
202	0x5b	91
203	0xf9	-7
204	0xf9	-7
205	0xed	-19
206	0xac	-84
207	0x49	73
208	0x83	-125
209	0x60	96
210	0x02	2
211	0x85	-123
212	0xe2	-30
213	0x7f	127
214	0x45	69
215	0xdb	-37
216	0x97	-105
217	0x4b	75
218	0x21	33
219	0x08	8
220	0x27	39
221	0xf6	-10
222	0x81	-127
223	0xd8	-40
224	0x46	70
225	0x1a	26
226	0xcd	-51
227	0xd8	-40
228	0xb0	-80
229	0x8b	-117
230	0xc6	-58
231	0xd8	-40
232	0x2c	44
233	0xfc	-4
234	0xed	-19
235	0x64	100
236	0x7f	127
237	0xd3	-45
238	0x81	-127
239	0x96	-106
240	0x81	-127
241	0xc0	-64
242	0x31	49
243	0x49	73
244	0x7f	127
245	0x91	-111
246	0x19	25
247	0xf2	-14
248	0xf4	-12
249	0xc2	-62
250	0x46	70
251	0x06	6
252	0x2f	47
253	0x07	7
254	0xe4	-28
255	0xa2	-94

tfl.pseudo_qconst13 i1 [64, 4, 4, 1]
0	0xb0	-80
1	0xbc	-68
2	0xdb	-37
3	0xc9	-55
4	0xa0	-96
5	0xbc	-68
6	0x20	32
7	0x49	73
8	0xe1	-31
9	0xf7	-9
10	0x4c	76
11	0x63	99
12	0x28	40
13	0x1e	30
14	0x62	98
15	0x7f	127
16	0x0a	10
17	0x02	2
18	0x81	-127
19	0x2a	42
20	0x2d	45
21	0xfd	-3
22	0x83	-125
23	0x16	22
24	0x5d	93
25	0x08	8
26	0x99	-103
27	0x4a	74
28	0x3e	62
29	0xbb	-69
30	0xce	-50
31	0x54	84
32	0xe1	-31
33	0xf8	-8
34	0xed	-19
35	0x0f	15
36	0x4f	79
37	0xfc	-4
38	0x21	33
39	0xef	-17
40	0x75	117
41	0xec	-20
42	0xef	-17
43	0x05	5
44	0x7f	127
45	0xf5	-11
46	0x07	7
47	0xf1	-15
48	0x39	57
49	0xfe	-2
50	0xaf	-81
51	0xbf	-65
52	0x6f	111
53	0xa9	-87
54	0xaa	-86
55	0x0a	10
56	0x58	88
57	0x23	35
58	0xa4	-92
59	0x1c	28
60	0x81	-127
61	0xa4	-92
62	0xcf	-49
63	0x2b	43
64	0x3b	59
65	0x7f	127
66	0x65	101
67	0x29	41
68	0x15	21
69	0x4e	78
70	0x08	8
71	0xfb	-5
72	0xcb	-53
73	0xcb	-53
74	0xc5	-59
75	0xdf	-33
76	0xb4	-76
77	0xa9	-87
78	0xce	-50
79	0xfa	-6
80	0x91	-111
81	0x3b	59
82	0xc9	-55
83	0x05	5
84	0xbf	-65
85	0x4a	74
86	0xb8	-72
87	0x0e	14
88	0xf3	-13
89	0x59	89
90	0xdf	-33
91	0x14	20
92	0x81	-127
93	0x5e	94
94	0xfc	-4
95	0xf3	-13
96	0x9d	-99
97	0xf9	-7
98	0x3a	58
99	0x7f	127
100	0xbd	-67
101	0xc8	-56
102	0x3a	58
103	0x2c	44
104	0xf0	-16
105	0x21	33
106	0x2e	46
107	0xcf	-49
108	0x03	3
109	0x04	4
110	0x04	4
111	0xe4	-28
112	0xc8	-56
113	0xdf	-33
114	0xfb	-5
115	0x01	1
116	0xcc	-52
117	0xcc	-52
118	0xa2	-94
119	0x81	-127
120	0x5f	95
121	0x1a	26
122	0xdd	-35
123	0xf3	-13
124	0x77	119
125	0x11	17
126	0xdd	-35
127	0xf1	-15
128	0xb3	-77
129	0xc5	-59
130	0x29	41
131	0x0b	11
132	0xc8	-56
133	0xc6	-58
134	0xda	-38
135	0x04	4
136	0x3b	59
137	0x38	56
138	0x44	68
139	0x7f	127
140	0xb9	-71
141	0xb1	-79
142	0xe2	-30
143	0xbc	-68
144	0x3d	61
145	0xdf	-33
146	0x6a	106
147	0x3d	61
148	0x39	57
149	0x2e	46
150	0x68	104
151	0x7f	127
152	0xc4	-60
153	0xcc	-52
154	0xff	-1
155	0xf3	-13
156	0x0e	14
157	0xfd	-3
158	0xff	-1
159	0xeb	-21
160	0x01	1
161	0xe4	-28
162	0xb9	-71
163	0x81	-127
164	0xe4	-28
165	0xf4	-12
166	0xd0	-48
167	0xc1	-63
168	0xf1	-15
169	0x08	8
170	0xf0	-16
171	0x17	23
172	0xd2	-46
173	0xeb	-21
174	0xdd	-35
175	0xe8	-24
176	0xd5	-43
177	0xe2	-30
178	0xff	-1
179	0xcc	-52
180	0xb1	-79
181	0xa1	-95
182	0xfd	-3
183	0xef	-17
184	0xc3	-61
185	0x01	1
186	0x0e	14
187	0x0e	14
188	0x56	86
189	0x67	103
190	0x7f	127
191	0x6e	110
192	0xfc	-4
193	0xae	-82
194	0xd0	-48
195	0x38	56
196	0x32	50
197	0xc9	-55
198	0xaf	-81
199	0x17	23
200	0x7f	127
201	0x21	33
202	0xa5	-91
203	0x8d	-115
204	0x76	118
205	0x0d	13
206	0x17	23
207	0xa8	-88
208	0x01	1
209	0x01	1
210	0xd8	-40
211	0x8b	-117
212	0x20	32
213	0x2d	45
214	0x08	8
215	0x89	-119
216	0x21	33
217	0x32	50
218	0x2f	47
219	0x81	-127
220	0xe7	-25
221	0xfc	-4
222	0x55	85
223	0xad	-83
224	0xf8	-8
225	0xd3	-45
226	0xfe	-2
227	0x8a	-118
228	0x6f	111
229	0x45	69
230	0x5c	92
231	0x3e	62
232	0x81	-127
233	0xcb	-53
234	0xd0	-48
235	0xaf	-81
236	0x00	0
237	0x1c	28
238	0x32	50
239	0xf5	-11
240	0xf6	-10
241	0xbb	-69
242	0xee	-18
243	0x99	-103
244	0xf9	-7
245	0xe3	-29
246	0x17	23
247	0x2e	46
248	0xa5	-91
249	0x67	103
250	0x1d	29
251	0x18	24
252	0x12	18
253	0x23	35
254	0x81	-127
255	0xf8	-8
