model_exports/model_quant.tflite (tflite, 8780 bytes, 12 tensors)

arith.constant f4 [32]
0	0xbce68f1f	-0.028144417
1	0xbdbd29e5	-0.092365064
2	0xbd6a8f00	-0.05726528
3	0xbdb12528	-0.08649665
4	0xbda4d13b	-0.0804772
5	0x3d9d1823	0.07670619
6	0xbe043e30	-0.12914348
7	0xbe1bcf65	-0.15215833
8	0xbb90348c	-0.0044007953
9	0xbe12e917	-0.14346729
10	0xbd9b44e2	-0.07581498
11	0x3e8afb63	0.27144918
12	0x3a825e69	0.0009946349
13	0xbd9990ae	-0.074982986
14	0x3d8f9633	0.0701107
15	0xbca7a70c	-0.020465396
16	0xbbecfe40	-0.0072324574
17	0x3e8d3809	0.27581814
18	0xbc49f65d	-0.012326804
19	0xbd938535	-0.072031416
20	0xbd3f86d7	-0.046759453
21	0xba04050d	-0.0005036153
22	0xbc9c18fb	-0.01905488
23	0xbd0f74c8	-0.03502348
24	0xbc8d9014	-0.017280616
25	0x3d5bdb34	0.053675845
26	0xbd1ee109	-0.03878883
27	0xbc8cf89c	-0.01720839
28	0x3c907f3b	0.017638793
29	0x3e2f9c02	0.17149356
30	0xbd1c6fe7	-0.038192656
31	0x3df4904e	0.119415864

arith.constant1 f4 [16]
0	0x39f07b23	0.0004586811
1	0x3cd6631d	0.026170308
2	0xbe7ab136	-0.24481663
3	0xbd0e06cf	-0.034674462
4	0xbe4cc67f	-0.19997595
5	0xbe584403	-0.21119694
6	0xbdc9b269	-0.09848482
7	0x3e323173	0.17401676
8	0xbd823a95	-0.0635883
9	0xbc9aea1f	-0.018910466
10	0x3c13c470	0.009019002
11	0xbdecb8a1	-0.11558653
12	0xbbd6623c	-0.006542472
13	0xbe1ce6fb	-0.15322487
14	0xbca9b1be	-0.020714637
15	0xbd1187cf	-0.035529908

arith.constant2 f4 [16]
0	0x3d91d43d	0.07120559
1	0x3dd1ee79	0.10250563
2	0xbe935d6b	-0.2878221
3	0xbd7a109b	-0.061050992
4	0xbdd93bb6	-0.10607092
5	0xbe881e3b	-0.26585564
6	0xbdd96496	-0.10614888
7	0x3e511ced	0.2042119
8	0xbc6ee161	-0.014580102
9	0xbcff5e14	-0.03117279
10	0x3e0a54c7	0.13508902
11	0xbdb3455e	-0.08753465
12	0x3e472866	0.19449005
13	0xbe21c5a8	-0.15798056
14	0xbcd79fde	-0.026321348
15	0xbc71eba5	-0.014765655

arith.constant3 f4 [8]
0	0xbddf99b3	-0.10917988
1	0x3d85fd15	0.06542412
2	0xbd73afb8	-0.05949375
3	0x3cedaa76	0.029011946
4	0xbd40b4f8	-0.047047585
5	0xbdff6e8a	-0.124722555
6	0xbd8a0757	-0.06739681
7	0xbd9f566e	-0.07780157

arith.constant4 f4 [4]
0	0x3e22c580	0.15895653
1	0x3c948b7d	0.01813292
2	0x3c696d50	0.014247254
3	0xbda2c728	-0.07948142

arith.constant5 f4 [32, 1, 1, 16]
0	0xbdb3d05e	-0.08779977
1	0x3e8f470d	0.27983895
2	0xbe12cba2	-0.14335492
3	0xbeae0a13	-0.3399206
4	0xbd924de8	-0.07143766
5	0x3dce8015	0.100830235
6	0x3e818944	0.25300038
7	0xbd18c249	-0.03729466
8	0x3e8a7325	0.27040973
9	0xbe7cabeb	-0.24674957
10	0xbe3af762	-0.18258432
11	0xbea18374	-0.31545603
12	0xbdb2fe4c	-0.087399095
13	0xbeb36982	-0.35041434
14	0xbeae37ba	-0.3402689
15	0xbec07d45	-0.37595573
16	0x3eb2c1bf	0.34913442
17	0x3eb39e29	0.35081604
18	0x3eaa4e99	0.3326309
19	0x3f09fbf7	0.5390009
20	0x3de969fb	0.11397167
21	0x3eddc9d4	0.43318045
22	0x3e383ca9	0.1799189
23	0x3d0c614d	0.03427248
24	0x3e40333b	0.18769543
25	0x3e581e3a	0.2110528
26	0x3f12a9a4	0.572901
27	0xbda5a85a	-0.08088751
28	0x3eabee53	0.33580264
29	0xbed8ef86	-0.42370242
30	0xbd2814c9	-0.041035447
31	0x3e4f3f13	0.20238905
32	0xbe66532e	-0.22492668
33	0x3e5cb365	0.21552809
34	0xbf88a988	-1.0676737
35	0xbe130dbe	-0.14360711
36	0x3d2aa719	0.041663263
37	0xbe806d04	-0.25083172
38	0xbd75bb8d	-0.059993315
39	0x3ec39a36	0.3820359
40	0xbefb470a	-0.49077636
41	0x3eba51a5	0.36390415
42	0x3e43eab7	0.19132505
43	0x3eec7ec5	0.46190467
44	0x3eb42c4a	0.3519004
45	0xbe23d9dc	-0.16001076
46	0x3e3e540a	0.18586746
47	0x3ec63da0	0.3871889
48	0xbea037dd	-0.3129262
49	0xbe5b3e2d	-0.21410437
50	0x3ea87d16	0.32907933
51	0x3e7d9603	0.24764256
52	0xbe70530a	-0.23469177
53	0x3e9b5166	0.3033554
54	0x3e2f19b7	0.17099653
55	0xbe17f32b	-0.14838855
56	0x3e1e6f03	0.15472035
57	0x3e276d5d	0.16350313
58	0xbeef8be9	-0.4678643
59	0x3e6396d3	0.22225504
60	0x3edba401	0.42898563
61	0xbe96d841	-0.29461864
62	0x3e5d0598	0.21584165
63	0x3eaf2800	0.34210205
64	0x3d95ae14	0.073085934
65	0x3e6fd9e0	0.23422956
66	0x3c3e6900	0.011621714
67	0xbd96df5c	-0.07366821
68	0x3d412e8f	0.047163542
69	0x3e3183d8	0.1733545
70	0xbe25eaaa	-0.16202798
71	0xbe440a3c	-0.19144529
72	0x3e1407e4	0.14456135
73	0xbefddc78	-0.49582267
74	0xbe676cbb	-0.22600071
75	0x3e9a004c	0.30078351
76	0xbe96e7b2	-0.29473644
77	0xbef51bdf	-0.47872826
78	0xbe91e466	-0.28494567
79	0x3e1835b2	0.14864233
80	0x3e951397	0.29116508
81	0xbf53ee0c	-0.82785106
82	0x3eaa3dac	0.33250177
83	0xbe759929	-0.23984207
84	0x3eb47814	0.35247862
85	0xbd028261	-0.03186262
86	0x3e0606bc	0.13088506
87	0x3e85c57c	0.2612723
88	0x3eb45c29	0.35226563
89	0x3dee551a	0.116373256
90	0x3e874feb	0.2642816
91	0x3dab4f25	0.08364705
92	0xbf28d7e9	-0.6595445
93	0x3e85f556	0.2616374
94	0xbbd56b37	-0.006513025
95	0xbec56907	-0.38556692
96	0x3ea0ed4b	0.3143104
97	0xbef4e5c9	-0.47831562
98	0x3eb2aee6	0.34899062
99	0x3db0b479	0.086281724
100	0x3f29e6a6	0.66367567
101	0x3eaa4e78	0.33262992
102	0xbd44a892	-0.048012324
103	0xbe135a01	-0.14389803
104	0xbde17efc	-0.110105485
105	0xbd78c5c1	-0.060735468
106	0x3efca7ec	0.49346864
107	0x3dadb523	0.08481815
108	0xbf12c732	-0.573352
109	0x3e9fef48	0.31237245
110	0xbd3a63ec	-0.04550545
111	0xbf0ad945	-0.54237777
112	0x3e82b02a	0.25525028
113	0xbe8dfc53	-0.2773157
114	0x3ed228f0	0.41046858
115	0x3ec2ed61	0.3807173
116	0xbec33360	-0.38125134
117	0x3e9bb588	0.30411935
118	0xbe1dfcfa	-0.15428534
119	0xbe50129b	-0.20319597
120	0x3ed43b3a	0.41451436
121	0xbc0b6c23	-0.0085096685
122	0xbecdc6db	-0.40190777
123	0x3e5d4c57	0.21611153
124	0x3e1c1866	0.15243682
125	0xbf026864	-0.5094054
126	0xbe6f5da8	-0.23375571
127	0x3e510a1e	0.20414016
128	0x3ef28608	0.47367883
129	0xbd05d002	-0.032669075
130	0x3d3c41dc	0.045961246
131	0xbe07b394	-0.13252097
132	0x3eaaca77	0.33357593
133	0x3de111f9	0.10989756
134	0x3ecd6433	0.40115508
135	0xbedca3ba	-0.43093663
136	0x3e178204	0.14795691
137	0x3e271bc3	0.16319184
138	0x3e51e3c5	0.20497043
139	0xbbb98cba	-0.005662528
140	0xbe025352	-0.12727097
141	0xbdf31136	-0.11868517
142	0xbd12ff6d	-0.035888124
143	0x3e819fef	0.25317332
144	0xbe2e0375	-0.16993506
145	0xbe9f9e33	-0.31175384
146	0x3dc8ddcb	0.09807929
147	0xbc00893c	-0.007845219
148	0x3e2782d3	0.16358499
149	0x3ea172e3	0.31532964
150	0x3e73b738	0.23800361
151	0xbe233a85	-0.15940292
152	0x3e80c0cd	0.25147095
153	0x3e16560e	0.14681265
154	0xbd1a18e2	-0.037621386
155	0x3f180027	0.5937523
156	0xbdc95198	-0.09830016
157	0x3ea2ca68	0.3179505
158	0xbe2f8829	-0.17141785
159	0xbebbba31	-0.3666549
160	0xbcbcea88	-0.023061052
161	0x3d9d198a	0.07670887
162	0x3ec8112f	0.3907561
163	0x3b2588f3	0.002525863
164	0x3eea7cb2	0.4579826
165	0xbc822e2e	-0.01589116
166	0x3c23488f	0.00996603
167	0xbe76a0e1	-0.24084808
168	0x3eb4ab0d	0.3528675
169	0x3d66b5d7	0.05632576
170	0x3e8cc151	0.2749124
171	0x3ddb6c79	0.10714049
172	0xbe241fc3	-0.16027741
173	0x3ebdf326	0.3709957
174	0xbe8411fd	-0.25794974
175	0xbf114a22	-0.5675374
176	0x3e622407	0.22084056
177	0x3ebfc446	0.37454432
178	0xbe2aef13	-0.16692762
179	0x3e7a85eb	0.24465148
180	0xbe2f24a9	-0.17103828
181	0xbec8167c	-0.39079654
182	0xbeec38b8	-0.46137023
183	0x3e97cf32	0.29650265
184	0xbd8919e3	-0.066943906
185	0x3de99ba5	0.1140664
186	0xbef829e2	-0.48469454
187	0x3e0b7aaa	0.13621011
188	0x3dcaea30	0.09907949
189	0xbdb43a3c	-0.0880017
190	0xbe67e876	-0.2264727
191	0xbe3de19d	-0.18543096
192	0xbdcb5ded	-0.09930024
193	0xbd61b8d7	-0.055107918
194	0x3dc72812	0.0972444
195	0x3c886ad2	0.016652498
196	0x3c3cd656	0.011525711
197	0x3da6d4e2	0.08146073
198	0xbd5db062	-0.05412329
199	0xbe852074	-0.26001322
200	0xbe92e320	-0.28688908
201	0xbe78743c	-0.2426309
202	0x3c825837	0.015911205
203	0xbea63a6c	-0.32466447
204	0xbe5950e7	-0.21222268
205	0xbe81acb7	-0.25327083
206	0x3e2e6142	0.17029288
207	0xbeba286f	-0.36358973
208	0x3cf1e685	0.029528866
209	0xbe47d275	-0.19513877
210	0x3eadffa6	0.33984107
211	0x3e2502ae	0.16114303
212	0x3c73d87b	0.014883156
213	0x3eba5fc4	0.36401188
214	0x3db79c3e	0.08965348
215	0xbe8d621f	-0.27613923
216	0xbece48d5	-0.4028994
217	0x3e16db36	0.1473206
218	0xbe974826	-0.29547232
219	0x3ea010af	0.3126273
220	0xbda4ed10	-0.080530286
221	0x3eca3803	0.3949586
222	0x3a59d57d	0.00083097053
223	0xbec432ab	-0.38319907
224	0x3ed60bbc	0.41805828
225	0xbe00bb3d	-0.12571426
226	0x3d8d041d	0.0688555
227	0xbeb71025	-0.35754505
228	0xbe5ff8b5	-0.21872218
229	0x3d992fc5	0.074798144
230	0x3ebe4441	0.3716145
231	0x3eab4775	0.33452955
232	0xbde1f926	-0.110338494
233	0xbd55a6f8	-0.052161187
234	0x3d1b71b3	0.03795023
235	0x3e9a06c5	0.3008329
236	0xbf03cbed	-0.5148304
237	0x3e8ec217	0.27882454
238	0xbd82b2e2	-0.063817754
239	0xbecb80a8	-0.39746594
240	0x3ddf0c69	0.10891039
241	0x3ddd1a74	0.10796061
242	0x3de114a4	0.10990265
243	0x3db0a832	0.08625831
244	0xbb064354	-0.0020486908
245	0x3e12a1f5	0.14319594
246	0xbe37c230	-0.1794517
247	0x3e0cc67c	0.13747591
248	0x3ec50598	0.3848083
249	0xbe860cce	-0.26181644
250	0x3eafdf09	0.3434985
251	0xbe95987d	-0.29217902
252	0x3e443364	0.19160229
253	0xbed204a7	-0.41019174
254	0xbe12e47d	-0.14344974
255	0x3e453c17	0.19261204

arith.constant6 f4 [1, 3, 3, 16]
0	0xbd247a67	-0.040155794
1	0x3e3fef95	0.18743737
2	0x3eb1a67d	0.34697333
3	0x3e5b6f6f	0.21429227
4	0x3e254417	0.16139255
5	0xbe2b4af4	-0.16727811
6	0xbd82c9f4	-0.06386176
7	0x3e7a80c7	0.24463187
8	0x3c18da74	0.009329427
9	0x3bc1d78c	0.005915588
10	0xbeef38d0	-0.46723032
11	0xbed1c6f3	-0.409721
12	0x3ea9dfee	0.33178657
13	0x3e3e5237	0.1858605
14	0xbdb00851	-0.08595336
15	0x3eb83bf1	0.35983232
16	0x3e5f77aa	0.21822992
17	0x3e40b814	0.1882022
18	0x3ecf090e	0.40436596
19	0x3e7de4e4	0.24794346
20	0xbd8c9485	-0.06864265
21	0x3dc6f97f	0.09715556
22	0x3e3369cb	0.17520826
23	0x3ecf92ec	0.4054178
24	0x3dd550dc	0.10415813
25	0xbe396990	-0.18106675
26	0x3ea6e143	0.32593736
27	0x3dfb288e	0.122635946
28	0xbf0f0937	-0.55873436
29	0x3f03b5db	0.51449364
30	0xbe5ba5a7	-0.2144991
31	0x3ed981c6	0.42481822
32	0x3e9955a3	0.29948148
33	0xbeee9163	-0.46595296
34	0x3e15cbbb	0.14628498
35	0x3ed92657	0.42412063
36	0xbe564d2c	-0.20927876
37	0x3d4fbff8	0.050720185
38	0x3d8f2acd	0.069905855
39	0x3edac4ca	0.42728263
40	0x3ee66322	0.44997507
41	0x3d7fbec0	0.062437773
42	0x3dd2086f	0.10255515
43	0x3e0cbbd9	0.13743533
44	0xbd951c81	-0.07280827
45	0xbdf0c51d	-0.117563464
46	0xbda3774e	-0.0798174
47	0x3e001fe0	0.1251216
48	0x3e87c082	0.2651406
49	0x3eefa36d	0.4680437
50	0x3d7cd89a	0.061730005
51	0x3d46acc9	0.048504625
52	0x3e77e472	0.24208239
53	0x3e02c17a	0.12769118
54	0x3da23f9f	0.07922291
55	0x3d707c5f	0.05871236
56	0x3d65af6c	0.0560755
57	0x3e6255fa	0.2210311
58	0xbeda9400	-0.4269104
59	0xbebefc2e	-0.37301773
60	0x3eb92ca3	0.36166868
61	0x3eec30bd	0.46130934
62	0xbd81cb34	-0.06337586
63	0x3ecfaa89	0.40559795
64	0x3ef0aa55	0.47004953
65	0x3ece1c12	0.4025579
66	0x3e812177	0.25220844
67	0x3c5bf413	0.013424891
68	0x3c8cd2d2	0.01719037
69	0x3dc48b2c	0.095968574
70	0x3e23ea74	0.16007406
71	0x3ec0cc2d	0.37655774
72	0xbcf1dc8e	-0.029524114
73	0xbd8b1233	-0.067905806
74	0x3eb7ebd6	0.35922116
75	0x3e9db521	0.30802253
76	0xbec67aeb	-0.38765654
77	0x3e4f4f23	0.20245032
78	0xbe479840	-0.19491673
79	0x3eee2a02	0.46516424
80	0x3ee923dd	0.45535174
81	0xbec931bc	-0.39295757
82	0x3e4b670e	0.19863531
83	0x3f20f495	0.628732
84	0xbdfe41b0	-0.12414873
85	0x3d3da4c6	0.04629972
86	0x3de29740	0.11064005
87	0x3e8338e1	0.25629333
88	0x3e99b1d3	0.30018482
89	0x3e4cd150	0.20001721
90	0x3d01a46c	0.031650946
91	0x3ea2edd5	0.31822076
92	0x3c005bcf	0.007834389
93	0x3e016333	0.12635498
94	0xbca8170e	-0.020518806
95	0x3d8be17c	0.06830117
96	0x3f10fb60	0.5663357
97	0xbda2cdbe	-0.079493985
98	0x3e20dacf	0.15708469
99	0xbd8727d6	-0.06599395
100	0x3e771510	0.24129128
101	0x3e4cbeb2	0.1999462
102	0x3dea41bb	0.11438318
103	0x3daf73a5	0.08566979
104	0x3eadbc50	0.33932734
105	0x3e8105a1	0.25199607
106	0xbf313d25	-0.69233924
107	0xbe1fcfe2	-0.15606645
108	0x3e05c597	0.13063656
109	0x3eeab40f	0.458405
110	0xbe0d2b6b	-0.13786094
111	0x3d81c508	0.06336409
112	0x3efd4f83	0.49474725
113	0x3e406553	0.18788652
114	0x3e4c6467	0.19960175
115	0xbd4daff6	-0.050216638
116	0xbda2b1b1	-0.07944048
117	0x3e50c2ed	0.20386858
118	0x3e41b672	0.18917254
119	0x3df53dc9	0.11974675
120	0x3e58af69	0.21160664
121	0x3e3421e7	0.17591058
122	0x3f02df3b	0.5112187
123	0x3de5ac33	0.11214485
124	0xbf036fe8	-0.5134263
125	0x3efd4435	0.494661
126	0xbdbf4c4b	-0.093407236
127	0x3e9af4cb	0.30264887
128	0x3edfc705	0.43706527
129	0xbee9a1df	-0.4563131
130	0x3e493cda	0.1965212
131	0x3ed19bb5	0.40939108
132	0xbec1c535	-0.3784577
133	0x3e9a598d	0.30146447
134	0xbd81b381	-0.06333066
135	0x3e2421af	0.16028474
136	0x3ef0ad5a	0.47007257
137	0x3e179ecf	0.14806674
138	0x3e8ad0b1	0.27112344
139	0x3ec7d318	0.3902824
140	0xbd4adf0a	-0.049529113
141	0x3e1091ea	0.14118162
142	0xba8a30b6	-0.0010543081
143	0x3dcf49b7	0.10121482

arith.constant7 f4 [16, 1, 1, 8]
0	0x3f160058	0.58594275
1	0xbe80084b	-0.25006327
2	0x3d14fa32	0.036371417
3	0x3e4da6d8	0.20083177
4	0x3eeb826e	0.45997947
5	0xbd95d6e2	-0.07316376
6	0xbec916a3	-0.39275083
7	0xbf986957	-1.1907147
8	0x3de6a5cb	0.11262091
9	0xbeb70759	-0.35747793
10	0x3e41f0a7	0.18939458
11	0x3f114ba4	0.56756043
12	0xbf7928c4	-0.9732783
13	0xbea47729	-0.32122162
14	0xbdfa3d57	-0.12218731
15	0x3ef2e573	0.4744068
16	0xbda1f9a4	-0.07908943
17	0xbe8a9354	-0.27065527
18	0x3f005566	0.5013031
19	0xbf00a515	-0.50251895
20	0x3e45bd69	0.19310535
21	0x3eea0caf	0.45712802
22	0x3f17ac3c	0.59247184
23	0x3f006ae8	0.50163126
24	0xbc93b9e7	-0.018032981
25	0x3f02513d	0.5090521
26	0x3cdc1e66	0.026869964
27	0xbead871d	-0.33892146
28	0x3d6547fb	0.05597685
29	0x3f2a6b17	0.66569656
30	0xbd41df6f	-0.047332224
31	0xbe5440a1	-0.20727779
32	0x3ef2d6de	0.47429556
33	0x3f0be857	0.546514
34	0x3f1f8f59	0.62328106
35	0x3ead2e00	0.33824158
36	0xbea8f5f8	-0.3300016
37	0x3efc07b1	0.49224618
38	0x3f04daf3	0.5189659
39	0x3f43f512	0.7654582
40	0xbf087a14	-0.53311276
41	0xbe22c860	-0.1589675
42	0x3f069f46	0.5258678
43	0x3e5c2525	0.21498545
44	0x3ed9f8fa	0.42572767
45	0x3d892efc	0.06698415
46	0x3e943b36	0.28951424
47	0x3ede16b5	0.433767
48	0x3f133622	0.57504475
49	0x3e60654e	0.21913645
50	0xbeb090c8	-0.3448546
51	0x3eacf4c8	0.33780503
52	0x3dd0c204	0.101932555
53	0x3d9b5e9e	0.07586406
54	0xbdad197f	-0.084521286
55	0xbe4f253c	-0.20229048
56	0xbe80af6b	-0.25133833
57	0x3e4f9867	0.2027298
58	0x3ef845c3	0.48490724
59	0x3eca96fb	0.39568314
60	0x3ba7a899	0.005116534
61	0xbf078a23	-0.52945155
62	0x3f16ca6a	0.5890261
63	0xbed26fc3	-0.41100892
64	0x3e29f7e8	0.16598475
65	0xbf4a344e	-0.7898606
66	0x3e2001a8	0.15625632
67	0x3e8f8b72	0.28036076
68	0x3e3b2b67	0.18278275
69	0x3f308800	0.6895752
70	0xbe913994	-0.2836424
71	0xbef69153	-0.4815775
72	0xbec46b30	-0.38363028
73	0x3db04e03	0.086086296
74	0x3eeb8001	0.45996097
75	0x3eb9d0c2	0.36292082
76	0x3d0d0079	0.03442428
77	0xbe676e98	-0.22600782
78	0x3eda2f50	0.42614222
79	0x3e8f190e	0.27948803
80	0x3e6af640	0.229455
81	0x3f0cb594	0.54964566
82	0xbf3f6872	-0.74768746
83	0xbe18ca3c	-0.14920896
84	0xbf0a1cfc	-0.53950477
85	0x3e77baf6	0.24192414
86	0x3eb2adcd	0.34898224
87	0x3de28f57	0.11062496
88	0xbeb0ccf6	-0.34531373
89	0xbec43932	-0.38324887
90	0x3f0c1e88	0.54734087
91	0x3ee6ca30	0.45076132
92	0x3de6cbaf	0.11269318
93	0xbeb51519	-0.3536766
94	0x3ec9aba3	0.3938876
95	0x3e1934bd	0.14961524
96	0x3e5f6942	0.21817496
97	0xbef8d9d7	-0.486037
98	0x3efc65d5	0.49296442
99	0x3ebfb6f8	0.37444282
100	0xbe8d7320	-0.27626896
101	0xbf0d9470	-0.5530462
102	0xbe665cb1	-0.22496296
103	0x3f4f84c9	0.8106199
104	0x3f246fce	0.642331
105	0xbf2b4b34	-0.66911626
106	0xbe44abff	-0.19206236
107	0x3e2619bf	0.16220759
108	0xbc711ea3	-0.014716777
109	0x3ebe00dd	0.37110034
110	0xbe7b99ad	-0.24570341
111	0xbee81854	-0.4533106
112	0xbd180555	-0.03711446
113	0xbe3f3fc5	-0.1867667
114	0x3c95323e	0.018212434
115	0x3c892395	0.0167406
116	0x3e58ca48	0.21170914
117	0xbee0df10	-0.43920183
118	0x3a638bd6	0.00086802
119	0x3e7e15f8	0.24813068
120	0xbe93a8f4	-0.28839839
121	0xbded9c8f	-0.11602127
122	0xbedfe713	-0.43730983
123	0x3f37a382	0.7173387
124	0x3b7e88b2	0.00388388
125	0xbe43f14e	-0.19135019
126	0x3efc1096	0.49231404
127	0x3ddee817	0.108841114

arith.constant8 f4 [1, 3, 3, 8]
0	0xbe611606	-0.21981058
1	0xbf1d29c6	-0.61391866
2	0xbd9e7546	-0.07737212
3	0xbc13fd41	-0.009032548
4	0xbe6afc8f	-0.22947906
5	0xbdf21059	-0.11819524
6	0x3f3843a1	0.71978194
7	0x3e87f4ee	0.26554054
8	0x3d4ee99c	0.050515756
9	0x3ea3de77	0.32005665
10	0xbdb6292f	-0.08894574
11	0x3dfea851	0.124344476
12	0xbe8cea88	-0.27522683
13	0x3ed6495d	0.41852847
14	0x3cc8b860	0.02450198
15	0xbea14ffd	-0.3150634
16	0x3eb3e47c	0.35135257
17	0x3e3ae58e	0.1825163
18	0x3f0a1061	0.5393124
19	0xbe093851	-0.13400389
20	0x3e6421b6	0.22278485
21	0x3ebde953	0.37092075
22	0x3ea3ad7d	0.319683
23	0x3dfe3da4	0.12414101
24	0xbf0ad370	-0.5422888
25	0xbef66ad7	-0.48128387
26	0x3e872580	0.26395798
27	0x3e218205	0.15772255
28	0x3dddbd7a	0.108271554
29	0x3da7c6df	0.081922285
30	0x3f07568c	0.52866435
31	0x3ec4b297	0.38417503
32	0x3df5c2b5	0.12000028
33	0x3ee9c2d4	0.45656455
34	0x3d8da12d	0.069155075
35	0x3e44bb42	0.19212058
36	0x3ea09107	0.31360647
37	0x3ebe224f	0.3713555
38	0x3e2a2dbe	0.16619012
39	0x3dde1e3c	0.108456105
40	0x3eb0371a	0.3441704
41	0xbeb0a0ae	-0.3449759
42	0x3f100393	0.56255454
43	0xbcce6d02	-0.025198463
44	0x3d189725	0.037253518
45	0x3eee9400	0.4659729
46	0x3e7014d4	0.23445445
47	0x3edf3023	0.43591413
48	0xbdefe2df	-0.11713194
49	0xbe345f14	-0.17614394
50	0xbe33aa6d	-0.17545481
51	0x3f00e556	0.5034994
52	0xbd1eefbf	-0.03880286
53	0x3de4b000	0.11166382
54	0x3e43bf1e	0.19115874
55	0x3c18ecba	0.009333784
56	0x3df78bb0	0.1208719
57	0x3f00d556	0.50325525
58	0x3d555566	0.052083395
59	0x3e73756b	0.2377526
60	0x3ef43a13	0.47700557
61	0x3e1b0626	0.15139064
62	0x3eb441d6	0.3520648
63	0xbe81502f	-0.25256488
64	0x3eb1575b	0.3463696
65	0xbd956309	-0.0729428
66	0x3f08be88	0.5341573
67	0xbdef77e2	-0.11692788
68	0x3b4f4c49	0.0031631163
69	0x3ef42f50	0.47692347
70	0xbe0fec32	-0.14054945
71	0x3e575db4	0.21031839

arith.constant9 f4 [4, 32]
0	0x3dae6c4a	0.08516748
1	0xbe885fb1	-0.26635507
2	0xbc607154	-0.0136988945
3	0xbe8f76e9	-0.2802041
4	0xbf199f8d	-0.6000908
5	0xbd155d11	-0.03646571
6	0xbefcaa72	-0.4934879
7	0xbf044183	-0.5166246
8	0xbf1a5e19	-0.6029983
9	0xbd202c0a	-0.0391045
10	0xbedd0aa3	-0.43172178
11	0x3e5fe19b	0.21863405
12	0xbe6c59e8	-0.23081172
13	0xbe396b19	-0.18107261
14	0xbe59648d	-0.21229763
15	0xbe63c01c	-0.22241253
16	0x3e01eda2	0.12688306
17	0x3f800eea	1.0004551
18	0x3ecfa001	0.4055176
19	0xbee93f66	-0.45556182
20	0x3e3e299b	0.18570559
21	0xbf09e575	-0.5386575
22	0xbea5cdcf	-0.32383582
23	0xbea7dd1c	-0.3278588
24	0x3e0c8bd6	0.13725218
25	0x3e788a77	0.2427157
26	0x3e5af1e1	0.21381332
27	0xbc547521	-0.012967379
28	0xbdf7fe3a	-0.12109037
29	0x3ecf7777	0.40520832
30	0xbf0b13a3	-0.5432684
31	0xbf65e9eb	-0.89810055
32	0xbe2eb8d3	-0.17062692
33	0xbd784315	-0.06061085
34	0x3e4e15e7	0.20125543
35	0xbce4c5ee	-0.027926411
36	0x3ddf7446	0.10910849
37	0x3e9d1b22	0.30684763
38	0x3f0125e6	0.50448453
39	0xbe00ec88	-0.1259023
40	0x3e1a4da8	0.15068686
41	0x3f2cb606	0.67465246
42	0x3f114c07	0.56756634
43	0x3f0099e5	0.50234824
44	0xbe064900	-0.13113785
45	0x3f128cac	0.572459
46	0x3f3ac67b	0.7295911
47	0xbebf1875	-0.37323347
48	0x3eb922c9	0.3615935
49	0xbd8b53cc	-0.06803092
50	0x3e3c3984	0.18381315
51	0x3f2e7e30	0.68161297
52	0xbefd7d16	-0.49509495
53	0x3cd1f220	0.02562815
54	0xbeb7ce26	-0.35899466
55	0xbddc00c6	-0.10742335
56	0x3ea794d0	0.32730722
57	0x3e7a5c05	0.24449165
58	0xbea3fcce	-0.32028812
59	0x3cecd207	0.028908743
60	0x3ef582dd	0.47951403
61	0x3d91bed5	0.071164764
62	0x3e39c8db	0.18143027
63	0xbe954bd1	-0.29159406
64	0xbe57af2b	-0.21062915
65	0x3e6d2507	0.23158656
66	0x3e29ad8a	0.16570106
67	0xbe4221e3	-0.1895824
68	0xbeaff626	-0.34367484
69	0x3e86df90	0.2634244
70	0x3e0ecac8	0.13944542
71	0xbda23883	-0.07920935
72	0x3ea970c3	0.33093843
73	0xbe80bc07	-0.25143453
74	0x3e98b6b3	0.29826888
75	0x3dc5bc07	0.09655004
76	0x3e98a81e	0.29815763
77	0xbe21de52	-0.15807465
78	0xbd1f4ff5	-0.038894612
79	0xbdc12711	-0.094312795
80	0xbe88a77f	-0.2669029
81	0xbed26ab1	-0.41097024
82	0xbde0c9b8	-0.10975975
83	0x3d8f51f1	0.06998051
84	0x3e95b019	0.29235914
85	0xbe88d89a	-0.26727754
86	0x3d429da1	0.047513608
87	0x3e7e8e47	0.24858962
88	0xbe74b5cd	-0.23897476
89	0xbedc9f99	-0.43090513
90	0x3f5b72af	0.8572187
91	0xbef1c4e6	-0.47220534
92	0x3eac79aa	0.33686572
93	0xba290afa	-0.0006448474
94	0x3e919da6	0.2844059
95	0x3f24bc3d	0.6434973
96	0xbd5bf4d1	-0.053700272
97	0x3e6f090f	0.233433
98	0xbf6f0638	-0.93368864
99	0x3ee012db	0.43764386
100	0x3f03f6c5	0.51548415
101	0xbf124757	-0.57140106
102	0xbf480016	-0.7812513
103	0x3e110c9b	0.14164965
104	0xbe43f864	-0.19137722
105	0xbe3d08b0	-0.18460345
106	0x3cdb7f91	0.026794227
107	0xbf05ed39	-0.523151
108	0xbe92381f	-0.28558442
109	0x3df1e0df	0.11810469
110	0xbf3b0291	-0.7305079
111	0x3d8b3e68	0.067990124
112	0x3e353ec0	0.17699718
113	0xbee7f5cc	-0.45304716
114	0x3e454faa	0.1926867
115	0xbdda6b2a	-0.10664971
116	0x3e7ba8a8	0.24576056
117	0xbea38826	-0.3193981
118	0xbc2c03a1	-0.010498912
119	0x3d9fe06d	0.07806478
120	0x3ea5fe7a	0.32420713
121	0xbc1bccc8	-0.009509273
122	0xbe89d25f	-0.26918313
123	0x3ef3e4d7	0.47635528
124	0xbe83d105	-0.25745407
125	0xbcd8a6c0	-0.0264467
126	0xbf03d3ce	-0.51495063
127	0xbf890dfe	-1.0707395

sequential_1/conv2d_1/convolution f4 [8, 3, 3, 1]
0	0x3f00f81c	0.50378585
1	0x3ed2c7e1	0.4116812
2	0xbdc62780	-0.09675503
3	0x3f0943ae	0.53618896
4	0x3f149c91	0.580514
5	0xbccf9c7f	-0.025343178
6	0x3eed26e5	0.46318737
7	0x3e9cc206	0.30616778
8	0x3df3a5c6	0.11896853
9	0x3f2b3900	0.6688385
10	0xbeb92f5a	-0.3616894
11	0xbd428c22	-0.047496922
12	0x3f1cf20f	0.6130685
13	0xbdd841de	-0.10559438
14	0xbe688c21	-0.22709705
15	0x3eca129d	0.39467326
16	0xbd9db343	-0.07700207
17	0xbe8dac3c	-0.27670467
18	0xbec8541f	-0.3912668
19	0xbee07e2b	-0.4384626
20	0x3f2594b7	0.64680046
21	0xbf0a88c6	-0.5411495
22	0xbea6d9e0	-0.325881
23	0x3eb04846	0.3443014
24	0xbed5b078	-0.41736197
25	0xbe7520d6	-0.23938307
26	0xbd48dcf6	-0.04903885
27	0x3e21313b	0.15741436
28	0xba805f55	-0.0009794036
29	0x3f2c0e81	0.6720963
30	0xbe57552b	-0.21028583
31	0xbeec3e22	-0.46141154
32	0xbe9f8363	-0.31154928
33	0xbefa2a05	-0.48860183
34	0xbefc1d04	-0.49240887
35	0x3e21fd8e	0.1581938
36	0xbe92e314	-0.28688872
37	0x3f03a729	0.5142694
38	0x3e8cf413	0.27529964
39	0xbe221694	-0.15828925
40	0x3ea931ba	0.3304575
41	0x3f049ae0	0.5179882
42	0xbe87bae9	-0.2650979
43	0x3e439644	0.1910029
44	0x3f491ee7	0.7856278
45	0xbc36a1d0	-0.011146978
46	0x3dee4ba1	0.11635519
47	0xbef7c53d	-0.48392668
48	0xbd92855f	-0.07154345
49	0x3e69db9c	0.2283768
50	0xbf1082b6	-0.5644945
51	0xbe101bba	-0.14073077
52	0x3e84af52	0.2591501
53	0xbefd48af	-0.49469516
54	0x3e8ed0d8	0.2789371
55	0xbdf703b0	-0.1206125
56	0xbf141d6b	-0.5785739
57	0x3f24e353	0.6440937
58	0x3f117617	0.56820816
59	0xbeb93760	-0.3617506
60	0x3e4c18eb	0.1993138
61	0xbcb13265	-0.021630475
62	0xbd577983	-0.052606117
63	0xbe690dde	-0.22759196
64	0x3f01536d	0.5051792
65	0xbebacfe8	-0.36486745
66	0xbe557366	-0.20844802
67	0x3eebbd81	0.46043018
68	0xbf02668f	-0.5093774
69	0x3b1b7a60	0.0023724064
70	0x3f31108b	0.6916587
71	0xbf2ac660	-0.66708946

sequential_1/conv2d_1/Relu;sequential_1/conv2d_1/BiasAdd;sequential_1/conv2d_1/convolution; f4 [8]
0	0xbe4dbf5b	-0.20092528
1	0x3ce7c31b	0.028291276
2	0xbde65aa8	-0.1124776
3	0xbbcf8f44	-0.0063342173
4	0xbe93da39	-0.28877428
5	0xbe0fed7a	-0.14055434
6	0xbd63eda4	-0.055646554
7	0xbe6ced52	-0.23137406
