model_exports/model_quant.tflite (tflite, 23616 bytes, 11 tensors)

arith.constant f4 [64]
0	0x00000000	0.0
1	0x00000000	0.0
2	0x00000000	0.0
3	0x00000000	0.0
4	0x00000000	0.0
5	0x00000000	0.0
6	0x00000000	0.0
7	0x00000000	0.0
8	0x00000000	0.0
9	0x00000000	0.0
10	0x00000000	0.0
11	0x00000000	0.0
12	0x00000000	0.0
13	0x00000000	0.0
14	0x00000000	0.0
15	0x00000000	0.0
16	0x00000000	0.0
17	0x00000000	0.0
18	0x00000000	0.0
19	0x00000000	0.0
20	0x00000000	0.0
21	0x00000000	0.0
22	0x00000000	0.0
23	0x00000000	0.0
24	0x00000000	0.0
25	0x00000000	0.0
26	0x00000000	0.0
27	0x00000000	0.0
28	0x00000000	0.0
29	0x00000000	0.0
30	0x00000000	0.0
31	0x00000000	0.0
32	0x00000000	0.0
33	0x00000000	0.0
34	0x00000000	0.0
35	0x00000000	0.0
36	0x00000000	0.0
37	0x00000000	0.0
38	0x00000000	0.0
39	0x00000000	0.0
40	0x00000000	0.0
41	0x00000000	0.0
42	0x00000000	0.0
43	0x00000000	0.0
44	0x00000000	0.0
45	0x00000000	0.0
46	0x00000000	0.0
47	0x00000000	0.0
48	0x00000000	0.0
49	0x00000000	0.0
50	0x00000000	0.0
51	0x00000000	0.0
52	0x00000000	0.0
53	0x00000000	0.0
54	0x00000000	0.0
55	0x00000000	0.0
56	0x00000000	0.0
57	0x00000000	0.0
58	0x00000000	0.0
59	0x00000000	0.0
60	0x00000000	0.0
61	0x00000000	0.0
62	0x00000000	0.0
63	0x00000000	0.0

arith.constant2 f4 [4, 64]
0	0xbe7942f0	-0.24341941
1	0xbfc5b4a2	-1.544575
2	0xbf7da01b	-0.99072427
3	0xbf199fba	-0.6000935
4	0xbf302b76	-0.68816316
5	0xbf577914	-0.84169126
6	0xbf4f01d3	-0.8086216
7	0xbfa676b2	-1.3004973
8	0xbe1074de	-0.14107081
9	0x3efe376e	0.49651664
10	0xbf01c207	-0.5068669
11	0xbf31aebf	-0.69407266
12	0x3e64ee4b	0.22356527
13	0x3f006fcf	0.50170606
14	0xbf6b90ed	-0.92018014
15	0xbf8580c5	-1.0429922
16	0x3d886eed	0.066617824
17	0xbf425cde	-0.75922954
18	0xbe53e941	-0.20694448
19	0xbf0ed3e2	-0.5579206
20	0xbf2628e2	-0.6490613
21	0x3e6da965	0.2320915
22	0xbf95bbc3	-1.1697925
23	0xbf68ed68	-0.90987253
24	0xbeeed4d4	-0.4664675
25	0xbe7b9b3d	-0.24570937
26	0xbfb0013e	-1.3750379
27	0x3e23b39b	0.15986483
28	0xbd35e044	-0.04440333
29	0xbc96f4f8	-0.018427357
30	0xbfa73638	-1.3063421
31	0xbf338466	-0.701239
32	0xbdc2f6bf	-0.09519719
33	0xbf11a612	-0.5689403
34	0x3ea9b513	0.3314596
35	0xbd61d8ca	-0.055138387
36	0xbee8a0aa	-0.45435077
37	0x3db98c66	0.09059982
38	0xbddc0935	-0.107439436
39	0x3f2f3497	0.6843962
40	0xbf866f1a	-1.0502656
41	0xbf4e7f45	-0.8066295
42	0xbf9af3dd	-1.2105671
43	0x3fa5d07e	1.2954252
44	0xbf31ce69	-0.6945558
45	0x3f3c16f9	0.73472553
46	0xbf3e7453	-0.74396247
47	0xbf17b9b2	-0.59267724
48	0xbf8fe9f4	-1.1243272
49	0xbf06a8df	-0.52601427
50	0xbebf250c	-0.37332952
51	0xbed3774a	-0.41301948
52	0x3f45ff29	0.7734247
53	0xbeefe019	-0.4685066
54	0x3f912291	1.1338674
55	0xbf354f47	-0.7082409
56	0xbfa17a5e	-1.2615469
57	0xbf1c3855	-0.61023456
58	0xbf62e507	-0.8863072
59	0x3d12833a	0.03576968
60	0xbf658708	-0.89659166
61	0xbed4bd45	-0.4155065
62	0xbf2a9899	-0.66639096
63	0xbf46aa2a	-0.776034
64	0xbf1882d6	-0.5957464
65	0x3e36f2c0	0.1786604
66	0xbea6f17c	-0.32606113
67	0xbea16f4b	-0.31530222
68	0x3e028be0	0.1274867
69	0xbba1e940	-0.0049411356
70	0xbeeca3a9	-0.46218613
71	0xbec5e02a	-0.38647586
72	0x3e8c4007	0.273926
73	0xbcaf98f1	-0.021435233
74	0xbe9e7094	-0.30945265
75	0xbed1d11e	-0.40979856
76	0x3e3adb7b	0.18247788
77	0x3eb139e7	0.34614488
78	0xbed179b4	-0.40913165
79	0xbe99fbd2	-0.30074936
80	0x3e5743aa	0.21021906
81	0xbd24e49f	-0.040257093
82	0x3e1b0279	0.15137662
83	0x3f04b053	0.5183155
84	0x3ea12074	0.31470072
85	0x3c900f6e	0.017585482
86	0xbcd415dd	-0.025889331
87	0xbe148701	-0.14504625
88	0x3e9ad6fc	0.30242145
89	0xbe08a7f6	-0.13345322
90	0xbe579470	-0.21052718
91	0x3ebb0335	0.36525884
92	0x3e22c4eb	0.1589543
93	0x3d97ed4c	0.07418308
94	0x3d612181	0.054963592
95	0xbe171195	-0.14752801
96	0x3e9d353a	0.3070467
97	0x3c904017	0.017608685
98	0x3f0cd711	0.55015665
99	0x3e1b126f	0.1514375
100	0x3c885821	0.016643586
101	0xbf22873d	-0.6348761
102	0x3e5c0981	0.21488
103	0xbdcc32ec	-0.0997065
104	0xbdf74203	-0.120731376
105	0x3e956471	0.29178193
106	0xbdbbbc23	-0.091667436
107	0x3ef8b99d	0.48579112
108	0xbed93a00	-0.42427063
109	0xbecd03c6	-0.4004194
110	0xbe2594d0	-0.16170049
111	0x3ea8b5fb	0.3295134
112	0xbec1b78a	-0.37835342
113	0x3e81b8ec	0.25336397
114	0x3e5c206d	0.21496744
115	0xbd687b42	-0.056758173
116	0xbe9907aa	-0.2988866
117	0x3edbc657	0.4292476
118	0xbf005de6	-0.5014328
119	0xbee9b94d	-0.45649186
120	0x3e98f6ff	0.29875943
121	0x3e95caa3	0.29256162
122	0xbe6314d8	-0.2217592
123	0xbee4f068	-0.44714665
124	0xbe05a0ea	-0.13049665
125	0xbdbcdf09	-0.09222228
126	0xbea6872d	-0.32525006
127	0x3f18a1b8	0.59621763
128	0x3ed6f813	0.4198614
129	0x3e099b11	0.1343806
130	0x3eb151db	0.34632763
131	0x3e534685	0.2063237
132	0xbeeab9a3	-0.45844755
133	0xbe8b1538	-0.27164626
134	0x3eb0caf8	0.34529853
135	0x3f37c019	0.7177749
136	0xbb812972	-0.0039417082
137	0xbf0c4713	-0.5479595
138	0x3e4cfd43	0.20018487
139	0x3f12ef45	0.57396346
140	0xbdab06f7	-0.08350938
141	0xbeaba0ed	-0.33521214
142	0x3ed5a21f	0.4172525
143	0xbead4a58	-0.33845782
144	0x3e8a96ea	0.27068263
145	0x3ec8ee27	0.39244196
146	0x3e6b0737	0.22951971
147	0xbdb8e6b7	-0.0902838
148	0x3e9d9d16	0.3078391
149	0x3d2abd4f	0.041684445
150	0x3df6a88c	0.120438665
151	0x3e672ea5	0.22576387
152	0x3db25bcc	0.08708915
153	0x3f2694bb	0.65070695
154	0xbd971c5a	-0.073784545
155	0xbeb5dfe1	-0.3552237
156	0xbe38b93d	-0.18039413
157	0xbed3ed4d	-0.41391984
158	0xbe29f57f	-0.16597556
159	0x3e9a40f7	0.3012769
160	0xbe470d61	-0.19438697
161	0x3eae6236	0.34059304
162	0x3c8147f3	0.015781378
163	0xbe3486bc	-0.17629522
164	0x3eac2dc3	0.33628663
165	0xbf40eb84	-0.7535937
166	0xbde7dbc7	-0.11321216
167	0x3e2d03cc	0.1689598
168	0x3e5d72bd	0.216258
169	0x3dcdb57e	0.100443825
170	0x3ec4bfd1	0.38427594
171	0xbefeb17e	-0.4974479
172	0xbef05620	-0.46940708
173	0xbf186f66	-0.5954498
174	0x3ecbbbbd	0.3979167
175	0x3e7b1a52	0.24521759
176	0x3ebd64ae	0.36990875
177	0xbdca8e88	-0.09890467
178	0xbdcde110	-0.10052693
179	0xbe766eb3	-0.24065666
180	0xbf06da21	-0.5267659
181	0xbea6c66a	-0.32573253
182	0xbef39a8e	-0.47578853
183	0x3e42ed1b	0.19035761
184	0x3e42f23b	0.19037716
185	0x3e2bd3aa	0.16779962
186	0xbeed2459	-0.46316794
187	0xbf4edd13	-0.8080608
188	0xbd52fbd4	-0.051509693
189	0x3e749e73	0.23888569
190	0x3df1c91b	0.11805936
191	0xbebdabd0	-0.37045145
192	0xbeda984d	-0.4269432
193	0x3e267073	0.16253833
194	0xbe672b16	-0.2257503
195	0x3def0d02	0.11672403
196	0x3e9ccea5	0.30626407
197	0x3f0d78e5	0.55262595
198	0x3ee2b6b4	0.44280016
199	0xbd0d486f	-0.034492906
200	0xbea13501	-0.3148575
201	0x3c8719f9	0.016491877
202	0xbeaa98fd	-0.33319846
203	0xbe3ba4eb	-0.1832463
204	0xbd571bba	-0.052516676
205	0x3dcd5bcd	0.10027275
206	0xbf176a78	-0.59146833
207	0x3f0f12f4	0.55888295
208	0xbd9fec7a	-0.07808776
209	0xbc4b4a08	-0.012407787
210	0xbe15ee6a	-0.14641729
211	0x3d95fdfe	0.07323836
212	0xbe8d8124	-0.2763759
213	0xbd00dd63	-0.03146113
214	0xbe4bbc54	-0.1989606
215	0x3c29a942	0.010355296
216	0x3e877a2c	0.26460397
217	0xbecab5ee	-0.39591926
218	0x3cd68cc5	0.026190171
219	0xbe96dd38	-0.29465652
220	0x3cb8b538	0.02254735
221	0x3e5a7bbf	0.21336268
222	0x3dbf33b6	0.09336035
223	0x3dd91dea	0.10601409
224	0x3e37a6c0	0.17934704
225	0xbf02527e	-0.50907123
226	0xbd803ec8	-0.062619746
227	0x3b093277	0.002093462
228	0xbec44fd6	-0.3834216
229	0x3efc7e93	0.49315318
230	0xbe800333	-0.2500244
231	0xbf1b828d	-0.6074608
232	0xbeab498e	-0.33454555
233	0xbf1cc945	-0.6124461
234	0x3e92753a	0.28605062
235	0xbfa00a94	-1.2503228
236	0x3e39306b	0.18084876
237	0x3f201f9b	0.62548226
238	0xbec37d54	-0.38181555
239	0xbea2df56	-0.31811017
240	0x3f0cd497	0.55011886
241	0xbd2d2e14	-0.04228027
242	0x3e6bb7f4	0.23019391
243	0x3e3f47ab	0.18679683
244	0x3e9e81d7	0.30958435
245	0x3e84738f	0.25869414
246	0x3ee79254	0.45228827
247	0xbe4eb1ec	-0.2018506
248	0x3e5b2a6d	0.21402903
249	0xbe82d2c3	-0.25551423
250	0x3f10e2fb	0.56596345
251	0x3f298d97	0.66231674
252	0x3e2f6f1b	0.17132227
253	0xbd5e0082	-0.054199703
254	0x3db22bcd	0.086997606
255	0xbe2ecfe4	-0.17071491

arith.constant3 f4 [1, 3, 3, 64]
0	0xbdb09af9	-0.08623309
1	0x3ac64cae	0.0015129053
2	0x3d165014	0.036697462
3	0x3daef057	0.08541935
4	0x3e35b72c	0.17745656
5	0xbe3c746a	-0.18403783
6	0x3d5265d7	0.051366653
7	0xbda9e414	-0.082954556
8	0xbe1ca5ce	-0.15297624
9	0xbd6ed34d	-0.05830698
10	0x3d86f060	0.06588817
11	0xbf06497f	-0.52455896
12	0xbc1a93ff	-0.009434699
13	0xbd5ca6bb	-0.053869944
14	0x3e496cf3	0.19670467
15	0xbeb02e99	-0.3441055
16	0xbe2f6327	-0.17127667
17	0xbdd51421	-0.1040423
18	0xbc1b30b1	-0.009472058
19	0xbcb44d97	-0.022009654
20	0x3dd43b7a	0.10362907
21	0x3e95e26b	0.29274306
22	0x3e1e551d	0.15462156
23	0xbd8af809	-0.0678559
24	0xbea2256c	-0.31669176
25	0xbe22bb16	-0.1589168
26	0xbe559e7e	-0.20861241
27	0x3e1b08ab	0.15140025
28	0xbdfd6372	-0.12372483
29	0xbd889fcc	-0.06671104
30	0xbc6318a4	-0.013860855
31	0xbd3dca5c	-0.046335563
32	0x3e41c511	0.18922831
33	0x3da135cc	0.07871589
34	0xbe4af45e	-0.19819781
35	0xbe1f17aa	-0.15536371
36	0xbe39dce9	-0.18150677
37	0xbd59caef	-0.05317205
38	0x3e804d26	0.2505886
39	0xbf2c1253	-0.6721546
40	0x3de00758	0.10938901
41	0x3d721b27	0.059107926
42	0xbdde1e32	-0.10845603
43	0x3dfa7e95	0.12231175
44	0xbe9c66fa	-0.30547315
45	0xbdc59c60	-0.09648967
46	0x3dffca94	0.124898106
47	0x3d9badc9	0.07601506
48	0x3e1fad76	0.15593514
49	0xbeec729a	-0.46181184
50	0xbd8f4d2d	-0.06997142
51	0x3e05ef13	0.13079481
52	0x3e55dceb	0.20885055
53	0x3ec28caf	0.37997958
54	0xbee04ee2	-0.43810183
55	0xbdfa798c	-0.122302145
56	0x3e41b952	0.1891835
57	0xbe20d045	-0.15704449
58	0xbcac4e30	-0.021033376
59	0xbe95c26f	-0.29249904
60	0xbdb0269d	-0.08601115
61	0xbcbea2e9	-0.023271041
62	0xbdbb5b1e	-0.091482386
63	0x3ef58f42	0.4796086
64	0x3bb05362	0.0053810338
65	0x3e19b495	0.15010293
66	0x3f22057d	0.63289624
67	0x3d862844	0.06550649
68	0x3e065f3c	0.13122267
69	0xbe3ddc68	-0.1854111
70	0x3ea75ac4	0.32686436
71	0xbda2fb30	-0.079580665
72	0xbb68b091	-0.0035505632
73	0xbe883f10	-0.26610613
74	0x3e4510b1	0.19244649
75	0xbdb7c54a	-0.08973177
76	0x3df12d37	0.11776202
77	0x3d44bf70	0.04803413
78	0x3ddbce8a	0.107327536
79	0x3de196de	0.11015104
80	0xbcccc728	-0.024997309
81	0xbd6b315d	-0.057420123
82	0xbceb0f20	-0.028693736
83	0xbe3fe559	-0.18739833
84	0xbcb14f2f	-0.021644203
85	0x3e1693cb	0.14704816
86	0x3e1caa95	0.15299447
87	0x3e0b5958	0.136083
88	0xbeaecb5f	-0.34139535
89	0xbed00998	-0.4063232
90	0xbe1f176c	-0.15536278
91	0xbea713cc	-0.3263229
92	0xbe7af361	-0.24506904
93	0xbddc9202	-0.10770036
94	0xbe3f89ef	-0.18704961
95	0xbe054bd1	-0.13017203
96	0x3ea4bbbb	0.32174477
97	0xbd62c60a	-0.055364646
98	0xbdf44437	-0.119270734
99	0x3df4b387	0.119483046
100	0x3bdf84bb	0.0068212426
101	0xbced3774	-0.028957106
102	0x3db5b83a	0.08873029
103	0xbe994a7d	-0.29939643
104	0x3d5a8251	0.053346936
105	0x3dd784af	0.10523354
106	0xbd8d5038	-0.06900066
107	0xbeb144c4	-0.34622777
108	0xbe0aff54	-0.13573962
109	0xbd223159	-0.039597843
110	0x3d55aed7	0.052168693
111	0x3cf68e26	0.030097079
112	0xbdb4032d	-0.08789668
113	0xbebcfddd	-0.36912432
114	0xbdb835eb	-0.08994659
115	0xbde6bd3d	-0.11266563
116	0x3d95dad7	0.07317131
117	0x3dc1b289	0.09457881
118	0xbc83f251	-0.016106756
119	0xbe23c6ef	-0.15993856
120	0x3e0d7281	0.13813211
121	0x3d242cb4	0.040081695
122	0x3cbc6781	0.022998573
123	0xbe23da2e	-0.16001198
124	0xbd84c269	-0.06482393
125	0xbe3731b9	-0.17890061
126	0xbe96fee5	-0.29491344
127	0xbd9a2732	-0.07527007
128	0x3ef48a6b	0.47761855
129	0x3e5c0165	0.21484907
130	0xbd8ade70	-0.06780708
131	0xbdaa548b	-0.083169065
132	0xbcd3664e	-0.025805619
133	0xbb48761c	-0.0030587977
134	0x3daa6a2b	0.08321031
135	0xbe321dff	-0.17394255
136	0x3ed421d8	0.4143207
137	0xbe2d5392	-0.16926411
138	0xbeb07e7f	-0.3447151
139	0x3d7b0260	0.06128156
140	0x3dbdc13d	0.09265373
141	0xbde2d585	-0.11075882
142	0x3d105e8e	0.035246424
143	0x3db12128	0.08648902
144	0x3cfdd82b	0.030986866
145	0x3e1753f6	0.14778122
146	0xbdaea5e5	-0.085277356
147	0x3e3b1c8b	0.18272607
148	0xbeba906f	-0.3643832
149	0xbe0a4221	-0.13501789
150	0x3cbf2a09	0.023335474
151	0xbdf61b2e	-0.12016903
152	0xbe726027	-0.23669492
153	0xbe1e76cc	-0.15475005
154	0xbe02d07b	-0.12774841
155	0x3e343d12	0.17601421
156	0x3c9994c8	0.018747702
157	0x3e417d17	0.18895374
158	0x3e61ec34	0.2206276
159	0xbe0c6a4c	-0.13712424
160	0x3eba9277	0.3643987
161	0xbdd96c76	-0.106163904
162	0x3b95ff50	0.0045775548
163	0x3f012b1b	0.504564
164	0x3d5ff2d7	0.05467495
165	0x3c0c8bac	0.008578222
166	0xbd5c8851	-0.05384094
167	0xbe1d1acb	-0.15342252
168	0xbcb3ef35	-0.021964649
169	0xbe60cb80	-0.21952629
170	0xbd9ecca5	-0.077538766
171	0xbf0f8c88	-0.5607381
172	0x3e9cdf17	0.30638954
173	0x3dffe012	0.1249391
174	0xbe29f8b0	-0.16598773
175	0xbca88188	-0.020569578
176	0xbe93537f	-0.2877464
177	0xbe5a2d03	-0.21306233
178	0x3e1ee6bf	0.1551771
179	0xbde91448	-0.113808215
180	0xbe6eb4f5	-0.23311217
181	0x3e360289	0.17774405
182	0x3ddbff15	0.107420124
183	0xbe67e52b	-0.22646014
184	0x3b18701a	0.0023260177
185	0xbe76e37f	-0.2411022
186	0xbd20aed6	-0.039229237
187	0x3e9968d9	0.29962805
188	0xbc7fa81f	-0.015604048
189	0xbef3abf1	-0.47592118
190	0xbe21f417	-0.15815769
191	0xbeaa187f	-0.33221814
192	0xbdc7a2c5	-0.09747843
193	0xbd584d33	-0.052807998
194	0xbeb8c915	-0.36090913
195	0xbd2047c9	-0.03913096
196	0x3db79b34	0.089651495
197	0x3e068b56	0.1313909
198	0xbeeaa87f	-0.45831677
199	0xbda70ce0	-0.081567526
200	0xbe6927b0	-0.22769046
201	0xbd5dfb4a	-0.054194726
202	0x3d90e6e7	0.07075291
203	0xbecab46a	-0.3959077
204	0xbe24fc72	-0.16111925
205	0xbda514bb	-0.08060595
206	0x3e114785	0.14187439
207	0xbe92eacc	-0.2869476
208	0xbe8c185b	-0.27362332
209	0xbe8b471e	-0.27202696
210	0x3dcdefa6	0.10055475
211	0x3e0095cf	0.12557147
212	0x3d80572e	0.06266628
213	0x3e452ce8	0.19255412
214	0x3dc34255	0.09534136
215	0x3e7e4f20	0.24834871
216	0xbe19f073	-0.1503313
217	0xbf066550	-0.5249834
218	0xbe28dc5c	-0.1649031
219	0x3e43cb36	0.19120488
220	0xbeb24d5f	-0.34824654
221	0xbcb541d3	-0.022126114
222	0x3db33fa5	0.087523736
223	0x3e87e6d7	0.26543304
224	0xbe8808b8	-0.26569152
225	0x3e1d0b9f	0.15336464
226	0x3d9e0cf8	0.07717317
227	0xbecfd553	-0.4059244
228	0x3e4a7ff7	0.19775377
229	0xbdfb8e8f	-0.1228305
230	0x3d86b951	0.06578315
231	0xbf39ecac	-0.7262676
232	0x3c9f86be	0.01947343
233	0x3e8ef06f	0.2791781
234	0x3cf43b80	0.029813528
235	0x3ef61b0d	0.48067513
236	0xbea1104d	-0.3145775
237	0xbda442aa	-0.08020528
238	0x3df432d7	0.119237594
239	0xbdbdd073	-0.09268274
240	0x3eae0636	0.33989114
241	0xbe22d211	-0.15900446
242	0x3db2db38	0.08733219
243	0xbc9bcae2	-0.01901764
244	0x3dcf6054	0.10125795
245	0x3e5190da	0.20465413
246	0xbe920fa8	-0.2852757
247	0x3e543b98	0.20725858
248	0x3d3c7864	0.04601325
249	0x3e7f8b71	0.24955536
250	0xbc171a3c	-0.009222563
251	0xbddba4c1	-0.10724784
252	0xbec0591f	-0.37567994
253	0x3e76743a	0.24067774
254	0xbd71e18e	-0.059052996
255	0x3e8fb5df	0.28068444

arith.constant4 f4 [16]
0	0x00000000	0.0
1	0x00000000	0.0
2	0x00000000	0.0
3	0x00000000	0.0
4	0x00000000	0.0
5	0x00000000	0.0
6	0x00000000	0.0
7	0x00000000	0.0
8	0x00000000	0.0
9	0x00000000	0.0
10	0x00000000	0.0
11	0x00000000	0.0
12	0x00000000	0.0
13	0x00000000	0.0
14	0x00000000	0.0
15	0x00000000	0.0

arith.constant5 f4 [1, 3, 3, 16]
0	0xbe629f2d	-0.22131033
1	0x3e16a988	0.14713109
2	0xbe9b4f1c	-0.30333793
3	0xbdf18a4f	-0.117939584
4	0x3dac9b0e	0.08428012
5	0x3b926c2a	0.0044684606
6	0x3dc1c682	0.094616905
7	0x3e040e5d	0.12896104
8	0xbc51f58f	-0.012814893
9	0x3dae179b	0.08500596
10	0xbd3108c0	-0.043221235
11	0xbe185636	-0.14876637
12	0x3ea33d8c	0.31882894
13	0xbe5c8814	-0.21536285
14	0x3c8d9b90	0.017286092
15	0xbb985536	-0.00464883
16	0xbea004a1	-0.31253532
17	0xbebc1cdf	-0.36740777
18	0xbe6b343e	-0.22969148
19	0xbe8988b9	-0.26862124
20	0x3dab07fc	0.08351132
21	0x3e05852e	0.13039085
22	0x3e9db9a9	0.3080571
23	0x3d98625d	0.07440636
24	0xbe4d97ad	-0.20077391
25	0x3e985ff8	0.29760718
26	0x3e6c0c29	0.23051514
27	0xbe9ea3c1	-0.3098431
28	0xbbda01a5	-0.006653028
29	0x3db607ef	0.08888232
30	0x3d5adedf	0.053435203
31	0x3e424829	0.1897284
32	0xbf3118dd	-0.69178563
33	0xbebab9f9	-0.3647001
34	0xbeb52ef5	-0.35387388
35	0xbebf682e	-0.3738417
36	0xbe0af0b3	-0.13568382
37	0x3e4e19bf	0.20127009
38	0x3e5ed1a2	0.21759656
39	0xbde862ef	-0.11346995
40	0xbdd3ea43	-0.10347416
41	0x3ee9c89a	0.4566086
42	0x3ee1dcb6	0.44113702
43	0x3cd29d6b	0.025709828
44	0x3e249400	0.16072083
45	0x3e17901d	0.14801069
46	0x3d8af866	0.067856595
47	0x3ed67042	0.4188252
48	0xbdb2751f	-0.08713745
49	0xbcc18e50	-0.02362743
50	0xbdba2b6c	-0.09090313
51	0x3d47355c	0.04863487
52	0x3ed1a0f1	0.409431
53	0x3e76efe3	0.24114947
54	0x3ecac4ae	0.3960318
55	0x3d28767c	0.04112862
56	0xbdadf07b	-0.08493134
57	0x3e88be32	0.26707608
58	0x3e08a072	0.13342455
59	0xbdd388a1	-0.10328794
60	0x3eb69b51	0.35665372
61	0xbe81633d	-0.25271025
62	0x3e6ecce8	0.23320353
63	0xbe0b9229	-0.13629974
64	0xbe325773	-0.17416172
65	0xbeb0996c	-0.34492052
66	0xbe4ac96c	-0.19803399
67	0xbea16af6	-0.31526917
68	0x3ec0d3d8	0.37661624
69	0x3e8a684e	0.27032703
70	0x3e59250b	0.21205537
71	0xbda4405c	-0.08020088
72	0x3def9b5c	0.11699554
73	0x3ec5c274	0.38624918
74	0xbd225945	-0.039635915
75	0xbe9cdd89	-0.30637768
76	0x3e18e0aa	0.14929453
77	0xbdb2df26	-0.087339684
78	0x3e826ae6	0.25472182
79	0x3e31b7c2	0.17355254
80	0xbef0491b	-0.46930775
81	0xbf0cb139	-0.5495792
82	0x3da2bc7c	0.07946107
83	0xbeb63c44	-0.35592854
84	0x3e9f47b6	0.311094
85	0x3d199223	0.037492882
86	0x3d3eba78	0.04656455
87	0xbeade6ba	-0.33965093
88	0x3ee1cb61	0.44100478
89	0x3ec70a0b	0.3887485
90	0x3ecd7be4	0.40133584
91	0xbeb98083	-0.3623086
92	0xbbfd6e86	-0.0077341227
93	0xbdee35b5	-0.116313376
94	0x3e7d245b	0.247209
95	0x3f04c98a	0.51870024
96	0xbdf84c68	-0.12123948
97	0x3e95397d	0.29145423
98	0x3e530a0e	0.20609304
99	0xbe9f2b5d	-0.3108777
100	0x3f02e88f	0.51136106
101	0x3ea5aaf8	0.32357
102	0x3e8e526e	0.27797264
103	0xbe4c783e	-0.19967744
104	0x3e8a9f3b	0.27074608
105	0x3e935bbb	0.28780922
106	0xbe39ec47	-0.18156539
107	0x3c3e8a3c	0.011629637
108	0x3e6d720f	0.23188041
109	0xbedd29e5	-0.43196025
110	0x3de58e6c	0.112088054
111	0xbe1964af	-0.14979814
112	0x3e0e401d	0.13891645
113	0xbcfd8d16	-0.030951064
114	0xbde972a3	-0.11398818
115	0xbecc3cd0	-0.39890146
116	0x3e1c9853	0.15292482
117	0x3e025e5b	0.12731306
118	0x3db85ff4	0.090026766
119	0xbe6e2bc3	-0.23258881
120	0x3ee8f44d	0.45498887
121	0x3d9cdf99	0.07659835
122	0xbe20e145	-0.15710934
123	0xbe7d1e74	-0.24718648
124	0x3d3ce9a8	0.04612127
125	0xbdebb09d	-0.11508296
126	0x3e067c38	0.13133323
127	0x3e1866ce	0.14882967
128	0xbcb65f66	-0.022262286
129	0xbe74f2e2	-0.23920777
130	0x3e654253	0.22388582
131	0xbe2ed7a1	-0.17074443
132	0xbc382fcc	-0.011241864
133	0x3e0c93b1	0.13728215
134	0x3da7cd32	0.08193435
135	0xbee27bbb	-0.44235024
136	0x3f1743fb	0.59088105
137	0x3f0bdbf0	0.54632473
138	0x3d5e00cd	0.054199982
139	0xbef94711	-0.48687032
140	0xbe11bf3c	-0.14233106
141	0xbe113496	-0.14180216
142	0x3eb07750	0.34466028
143	0x3e06beff	0.13158797

arith.constant6 f4 [64]
0	0x3eb674f7	0.35636112
1	0xbecdb01b	-0.4017342
2	0x3da84728	0.08216697
3	0xbdc9f653	-0.09861436
4	0x3e0f3952	0.1398671
5	0xbe141f9e	-0.14465186
6	0xbdb3127e	-0.087437615
7	0x3e676bf0	0.22599769
8	0x3e160351	0.14649703
9	0x3efae9eb	0.4900659
10	0x3e9064b9	0.28201845
11	0x3e6ab17e	0.2291927
12	0x3e012fac	0.12615842
13	0x3ec41716	0.38298863
14	0x3ecb60d2	0.39722306
15	0x3dbf7873	0.09349146
16	0x3c955ba1	0.018232169
17	0xbd18cc78	-0.03730437
18	0x3c76dfc2	0.015067996
19	0xbe615c49	-0.2200786
20	0x3ca025b0	0.01954922
21	0xbd9ccc53	-0.07656159
22	0x3daa9285	0.08328728
23	0xbdf8e216	-0.121524975
24	0xbdb1fc89	-0.086907454
25	0x3ebca25a	0.36842614
26	0xbdfd97ce	-0.1238247
27	0x3e355133	0.17706756
28	0x3c6ada7c	0.014334317
29	0xbb1aebe8	-0.0023639146
30	0x3e7f9646	0.24959669
31	0xbde8466b	-0.11341556
32	0x3d610bd1	0.05494291
33	0x3df96f22	0.121794
34	0x3c76ce30	0.015063807
35	0x3d324e95	0.043531973
36	0x3dafe68d	0.08588896
37	0x3e300315	0.17188676
38	0x3e3b8518	0.1831249
39	0x3ebf4822	0.3735972
40	0xbda8ecbe	-0.0824828
41	0x3e8b7374	0.2723652
42	0xbdc495b0	-0.09598863
43	0x3f69aa15	0.9127515
44	0x3c598d1d	0.013278273
45	0x3eb01525	0.34391132
46	0x3e35f1cb	0.17768018
47	0xbbd3954f	-0.006457008
48	0x3dce2e69	0.10067446
49	0xbdf9bac7	-0.12193828
50	0xbdcc21fe	-0.09967421
51	0x3bf86088	0.007579867
52	0x3f021f94	0.50829434
53	0x3e796d2a	0.24358049
54	0x3f146d1f	0.57979006
55	0xbbc5292c	-0.006016871
56	0xbee39404	-0.44448864
57	0xbd0efeb2	-0.034910865
58	0x3dd9cd09	0.106348105
59	0x3e85b55a	0.26114923
60	0xbdb54ec9	-0.08852918
61	0x3e6cd34c	0.23127478
62	0xbdd8cc72	-0.1058587
63	0x3ea23c74	0.31686747

arith.constant7 f4 [4]
0	0x3eb7d6f8	0.35906196
1	0x3dbe408b	0.09289654
2	0xbddd4d6e	-0.10805784
3	0xbdfe9ba0	-0.12432027

tfl.pseudo_qconst i1 [16, 3, 3, 16]
0	0xef	-17
1	0x4e	78
2	0x2c	44
3	0xd2	-46
4	0x0c	12
5	0xf4	-12
6	0xea	-22
7	0x06	6
8	0x13	19
9	0xea	-22
10	0x23	35
11	0xe9	-23
12	0x2a	42
13	0x20	32
14	0xfa	-6
15	0xa9	-87
16	0xff	-1
17	0x3d	61
18	0x28	40
19	0x05	5
20	0xec	-20
21	0x0a	10
22	0x15	21
23	0xf9	-7
24	0x13	19
25	0x15	21
26	0x1b	27
27	0x0e	14
28	0xe7	-25
29	0x44	68
30	0xe9	-23
31	0xf7	-9
32	0x0a	10
33	0x7f	127
34	0xda	-38
35	0x10	16
36	0xd2	-46
37	0x28	40
38	0x0f	15
39	0x04	4
40	0x21	33
41	0x0f	15
42	0x2f	47
43	0x09	9
44	0x06	6
45	0xfd	-3
46	0x31	49
47	0xd8	-40
48	0xcb	-53
49	0x16	22
50	0xec	-20
51	0xe3	-29
52	0xe6	-26
53	0x08	8
54	0xf7	-9
55	0x3e	62
56	0x21	33
57	0xf9	-7
58	0x19	25
59	0x3f	63
60	0x2c	44
61	0x13	19
62	0xd7	-41
63	0xe0	-32
64	0xe3	-29
65	0x1b	27
66	0xda	-38
67	0x0a	10
68	0xe4	-28
69	0x0e	14
70	0x06	6
71	0x01	1
72	0x1a	26
73	0x22	34
74	0x09	9
75	0x15	21
76	0xfc	-4
77	0x33	51
78	0xee	-18
79	0x15	21
80	0x3f	63
81	0x63	99
82	0xdb	-37
83	0x23	35
84	0xf1	-15
85	0x15	21
86	0x07	7
87	0xf8	-8
88	0x15	21
89	0x2d	45
90	0x02	2
91	0x36	54
92	0xfc	-4
93	0x11	17
94	0x0f	15
95	0x30	48
96	0xc6	-58
97	0x1f	31
98	0xed	-19
99	0xdb	-37
100	0x0d	13
101	0xe8	-24
102	0x0f	15
103	0x3a	58
104	0x2a	42
105	0xc5	-59
106	0x03	3
107	0x68	104
108	0xf7	-9
109	0x3d	61
110	0x07	7
111	0xf2	-14
112	0x0b	11
113	0x00	0
114	0xf7	-9
115	0xd6	-42
116	0x0a	10
117	0x06	6
118	0xf2	-14
119	0x4a	74
120	0x09	9
121	0xe2	-30
122	0xe3	-29
123	0x0f	15
124	0xd8	-40
125	0x4d	77
126	0xeb	-21
127	0xec	-20
128	0x61	97
129	0x76	118
130	0xe5	-27
131	0x00	0
132	0xd3	-45
133	0xf5	-11
134	0x18	24
135	0x0d	13
136	0x0c	12
137	0x11	17
138	0xbc	-68
139	0x29	41
140	0xb9	-71
141	0x31	49
142	0xc7	-57
143	0x22	34
144	0xc9	-55
145	0xf7	-9
146	0xe6	-26
147	0xd7	-41
148	0xed	-19
149	0xe8	-24
150	0xc6	-58
151	0xf9	-7
152	0xfa	-6
153	0xdc	-36
154	0xc7	-57
155	0xec	-20
156	0xf9	-7
157	0x35	53
158	0xd4	-44
159	0x03	3
160	0x12	18
161	0x1b	27
162	0xf6	-10
163	0x32	50
164	0xd1	-47
165	0xfa	-6
166	0xf2	-14
167	0xfb	-5
168	0xfc	-4
169	0xb8	-72
170	0x06	6
171	0x16	22
172	0x12	18
173	0x05	5
174	0xf0	-16
175	0xf0	-16
176	0x3a	58
177	0xd7	-41
178	0xf1	-15
179	0x5e	94
180	0xff	-1
181	0xff	-1
182	0xf3	-13
183	0x45	69
184	0x0d	13
185	0xd4	-44
186	0x0e	14
187	0x6d	109
188	0x19	25
189	0x08	8
190	0x07	7
191	0x13	19
192	0xdc	-36
193	0x11	17
194	0x12	18
195	0xea	-22
196	0xff	-1
197	0xd2	-46
198	0xd6	-42
199	0x10	16
200	0xfc	-4
201	0xd5	-43
202	0xfd	-3
203	0xf5	-11
204	0xde	-34
205	0x4e	78
206	0xe9	-23
207	0x08	8
208	0x01	1
209	0x36	54
210	0xf3	-13
211	0x02	2
212	0xf1	-15
213	0xcf	-49
214	0xf1	-15
215	0x2b	43
216	0x09	9
217	0xcb	-53
218	0x21	33
219	0x1a	26
220	0xe6	-26
221	0x3f	63
222	0xfb	-5
223	0xfa	-6
224	0x49	73
225	0xf4	-12
226	0xda	-38
227	0x0e	14
228	0x0d	13
229	0xff	-1
230	0x16	22
231	0x3c	60
232	0xfd	-3
233	0xfd	-3
234	0xf1	-15
235	0x4a	74
236	0xf0	-16
237	0x17	23
238	0xe8	-24
239	0x27	39
240	0xe9	-23
241	0x21	33
242	0x18	24
243	0x20	32
244	0x10	16
245	0xf9	-7
246	0xf0	-16
247	0x5d	93
248	0x05	5
249	0xbc	-68
250	0x4c	76
251	0xfe	-2
252	0xbf	-65
253	0x7f	127
254	0xf1	-15
255	0x01	1

tfl.pseudo_qconst1 i1 [16, 3, 3, 64]
0	0xec	-20
1	0x03	3
2	0x18	24
3	0x22	34
4	0x24	36
5	0xc2	-62
6	0x24	36
7	0xda	-38
8	0xdc	-36
9	0xfe	-2
10	0x25	37
11	0xd7	-41
12	0x0e	14
13	0xff	-1
14	0x29	41
15	0x0e	14
16	0x0f	15
17	0xeb	-21
18	0xd2	-46
19	0xc2	-62
20	0xfa	-6
21	0x41	65
22	0xdc	-36
23	0xf3	-13
24	0xc8	-56
25	0xd1	-47
26	0xc7	-57
27	0xa2	-94
28	0xd5	-43
29	0x64	100
30	0xf6	-10
31	0xf0	-16
32	0x0c	12
33	0xd6	-42
34	0xe6	-26
35	0xc7	-57
36	0xcd	-51
37	0xf7	-9
38	0x48	72
39	0x3a	58
40	0x12	18
41	0xeb	-21
42	0x19	25
43	0x94	-108
44	0xc3	-61
45	0x13	19
46	0xd9	-39
47	0xcb	-53
48	0xf5	-11
49	0x3e	62
50	0xdf	-33
51	0xf9	-7
52	0x32	50
53	0xf9	-7
54	0x1b	27
55	0xb8	-72
56	0x30	48
57	0x16	22
58	0xff	-1
59	0xbb	-69
60	0x1c	28
61	0xec	-20
62	0xfc	-4
63	0xdc	-36
64	0xe8	-24
65	0xe4	-28
66	0x18	24
67	0x02	2
68	0x14	20
69	0xfb	-5
70	0x0f	15
71	0x03	3
72	0xe3	-29
73	0xe1	-31
74	0x31	49
75	0xaf	-81
76	0x08	8
77	0x0c	12
78	0x15	21
79	0xec	-20
80	0x15	21
81	0x00	0
82	0xe9	-23
83	0xda	-38
84	0x41	65
85	0x31	49
86	0xd5	-43
87	0x00	0
88	0xea	-22
89	0xe9	-23
90	0xdd	-35
91	0xf0	-16
92	0xe2	-30
93	0xee	-18
94	0xdf	-33
95	0xdd	-35
96	0xdd	-35
97	0xf0	-16
98	0xe9	-23
99	0xe1	-31
100	0xdd	-35
101	0xfa	-6
102	0x0d	13
103	0x12	18
104	0x08	8
105	0x10	16
106	0x2c	44
107	0xa8	-88
108	0xc0	-64
109	0x00	0
110	0xfe	-2
111	0xf4	-12
112	0x0b	11
113	0x28	40
114	0xfc	-4
115	0xe3	-29
116	0x33	51
117	0x04	4
118	0x15	21
119	0xd9	-39
120	0x07	7
121	0x18	24
122	0xe5	-27
123	0xd8	-40
124	0x2b	43
125	0x0b	11
126	0x1c	28
127	0xe1	-31
128	0xf9	-7
129	0x13	19
130	0xdc	-36
131	0x31	49
132	0xec	-20
133	0x1c	28
134	0xd6	-42
135	0x34	52
136	0xf4	-12
137	0xde	-34
138	0x20	32
139	0xea	-22
140	0xf0	-16
141	0x04	4
142	0x11	17
143	0x01	1
144	0xf7	-9
145	0xdb	-37
146	0x04	4
147	0xc5	-59
148	0x49	73
149	0xe3	-29
150	0x02	2
151	0x20	32
152	0xf5	-11
153	0x11	17
154	0xf0	-16
155	0x0e	14
156	0xde	-34
157	0x9f	-97
158	0xf9	-7
159	0xea	-22
160	0xd4	-44
161	0x00	0
162	0x04	4
163	0x95	-107
164	0x48	72
165	0xe5	-27
166	0xe5	-27
167	0xd8	-40
168	0x1b	27
169	0xf9	-7
170	0x11	17
171	0xea	-22
172	0xe5	-27
173	0x00	0
174	0xe1	-31
175	0x09	9
176	0x21	33
177	0x0e	14
178	0xe8	-24
179	0xd9	-39
180	0x2e	46
181	0xe0	-32
182	0xfe	-2
183	0x04	4
184	0xe6	-26
185	0x0b	11
186	0xff	-1
187	0xb3	-77
188	0x35	53
189	0x1f	31
190	0x39	57
191	0x25	37
192	0xe3	-29
193	0x20	32
194	0x29	41
195	0xf2	-14
196	0x27	39
197	0xdd	-35
198	0x14	20
199	0xd8	-40
200	0x1f	31
201	0x25	37
202	0xf0	-16
203	0x17	23
204	0x0f	15
205	0x02	2
206	0x13	19
207	0xfd	-3
208	0x01	1
209	0x00	0
210	0xeb	-21
211	0xd8	-40
212	0xe2	-30
213	0x32	50
214	0xde	-34
215	0x6a	106
216	0x17	23
217	0x10	16
218	0xe9	-23
219	0xc1	-63
220	0xdf	-33
221	0xe3	-29
222	0x07	7
223	0x27	39
224	0x54	84
225	0xc8	-56
226	0xd7	-41
227	0x0f	15
228	0xef	-17
229	0xfa	-6
230	0xfd	-3
231	0x25	37
232	0x3b	59
233	0xdc	-36
234	0xd9	-39
235	0xd8	-40
236	0xeb	-21
237	0x18	24
238	0xd8	-40
239	0xf6	-10
240	0x0b	11
241	0x1c	28
242	0xff	-1
243	0x99	-103
244	0xb8	-72
245	0xe3	-29
246	0x39	57
247	0x08	8
248	0x18	24
249	0x25	37
250	0x0b	11
251	0xfe	-2
252	0x1f	31
253	0xc7	-57
254	0x1c	28
255	0xf1	-15

tfl.pseudo_qconst2 i1 [64, 16]
0	0xf5	-11
1	0x5b	91
2	0x20	32
3	0x9e	-98
4	0xf6	-10
5	0x11	17
6	0x02	2
7	0x81	-127
8	0xf0	-16
9	0xf6	-10
10	0x1b	27
11	0xcc	-52
12	0xff	-1
13	0xea	-22
14	0xe8	-24
15	0xd8	-40
16	0x24	36
17	0xc4	-60
18	0xdf	-33
19	0x11	17
20	0x40	64
21	0xfd	-3
22	0x40	64
23	0x70	112
24	0x7f	127
25	0x7c	124
26	0x21	33
27	0x5f	95
28	0xe9	-23
29	0x3f	63
30	0x34	52
31	0x7b	123
32	0x33	51
33	0x19	25
34	0xd2	-46
35	0xc5	-59
36	0x45	69
37	0x15	21
38	0x2d	45
39	0x0b	11
40	0xb8	-72
41	0x2f	47
42	0x41	65
43	0xdc	-36
44	0x30	48
45	0xa5	-91
46	0x84	-124
47	0x81	-127
48	0x12	18
49	0xff	-1
50	0x15	21
51	0x81	-127
52	0xfa	-6
53	0xf7	-9
54	0x11	17
55	0x88	-120
56	0x16	22
57	0x1b	27
58	0x0b	11
59	0xcd	-51
60	0xea	-22
61	0x09	9
62	0xc0	-64
63	0x05	5
64	0x04	4
65	0xbb	-69
66	0xec	-20
67	0x09	9
68	0xf8	-8
69	0xf6	-10
70	0xe2	-30
71	0xb8	-72
72	0x5a	90
73	0xeb	-21
74	0xe6	-26
75	0x7f	127
76	0xe2	-30
77	0xf1	-15
78	0x22	34
79	0x49	73
80	0x1c	28
81	0xd7	-41
82	0x0d	13
83	0x45	69
84	0xfc	-4
85	0x10	16
86	0x91	-111
87	0xe2	-30
88	0x81	-127
89	0x20	32
90	0x03	3
91	0xf9	-7
92	0x25	37
93	0x77	119
94	0x56	86
95	0x09	9
96	0xfc	-4
97	0x65	101
98	0xf1	-15
99	0x0f	15
100	0x81	-127
101	0x43	67
102	0xa7	-89
103	0x11	17
104	0x2c	44
105	0xd1	-47
106	0xeb	-21
107	0x11	17
108	0x52	82
109	0x0c	12
110	0x0c	12
111	0x0d	13
112	0x81	-127
113	0x1f	31
114	0x0f	15
115	0xf1	-15
116	0x0a	10
117	0x09	9
118	0x05	5
119	0xff	-1
120	0x01	1
121	0xfa	-6
122	0x05	5
123	0x0b	11
124	0x09	9
125	0xfb	-5
126	0x02	2
127	0xfe	-2
128	0x2e	46
129	0x93	-109
130	0x2d	45
131	0x23	35
132	0x4f	79
133	0xdb	-37
134	0x1c	28
135	0x54	84
136	0xdc	-36
137	0xdb	-37
138	0x21	33
139	0x4c	76
140	0x46	70
141	0xef	-17
142	0x7f	127
143	0x1a	26
144	0x04	4
145	0xbb	-69
146	0xf5	-11
147	0x1d	29
148	0xd3	-45
149	0x1e	30
150	0x02	2
151	0x3a	58
152	0x0c	12
153	0x06	6
154	0x08	8
155	0x27	39
156	0xc1	-63
157	0x4a	74
158	0x4f	79
159	0x7f	127
160	0xc3	-61
161	0x07	7
162	0x28	40
163	0xa6	-90
164	0xd7	-41
165	0x11	17
166	0x20	32
167	0x81	-127
168	0xb6	-74
169	0x93	-109
170	0x4e	78
171	0xe6	-26
172	0x2e	46
173	0x8a	-118
174	0xd0	-48
175	0xc3	-61
176	0x14	20
177	0x46	70
178	0x51	81
179	0xe8	-24
180	0xeb	-21
181	0x10	16
182	0xf1	-15
183	0xb0	-80
184	0x84	-124
185	0x81	-127
186	0xd5	-43
187	0xcd	-51
188	0xfc	-4
189	0x9a	-102
190	0xf1	-15
191	0xc1	-63
192	0xc8	-56
193	0x81	-127
194	0x4a	74
195	0x4f	79
196	0x16	22
197	0x22	34
198	0x37	55
199	0x0f	15
200	0x38	56
201	0xd5	-43
202	0x51	81
203	0x2d	45
204	0xc9	-55
205	0x0f	15
206	0x7d	125
207	0x47	71
208	0xd9	-39
209	0xc9	-55
210	0xfc	-4
211	0x1c	28
212	0x07	7
213	0xf7	-9
214	0xdb	-37
215	0xde	-34
216	0x0e	14
217	0xec	-20
218	0xec	-20
219	0x03	3
220	0x13	19
221	0x4c	76
222	0x2a	42
223	0x7f	127
224	0x0f	15
225	0x7f	127
226	0x18	24
227	0xbb	-69
228	0x04	4
229	0xef	-17
230	0xec	-20
231	0xa1	-95
232	0xd1	-47
233	0xe0	-32
234	0xf4	-12
235	0xce	-50
236	0x19	25
237	0xaa	-86
238	0xed	-19
239	0x9f	-97
240	0x34	52
241	0x1b	27
242	0xf0	-16
243	0x00	0
244	0xed	-19
245	0x81	-127
246	0x29	41
247	0xf2	-14
248	0xe9	-23
249	0x04	4
250	0xd1	-47
251	0x16	22
252	0xf8	-8
253	0x19	25
254	0xff	-1
255	0x28	40

functional_1/conv2d_1/convolution i1 [64, 4, 4, 1]
0	0xf4	-12
1	0x3c	60
2	0x10	16
3	0x01	1
4	0x81	-127
5	0xaf	-81
6	0xb4	-76
7	0x9c	-100
8	0xfc	-4
9	0xf8	-8
10	0xcc	-52
11	0xdc	-36
12	0x46	70
13	0x26	38
14	0x07	7
15	0x3b	59
16	0xb8	-72
17	0x0c	12
18	0x0e	14
19	0x1f	31
20	0x95	-107
21	0x03	3
22	0x08	8
23	0x39	57
24	0xc5	-59
25	0x1b	27
26	0x7f	127
27	0x6e	110
28	0x97	-105
29	0xf6	-10
30	0x3d	61
31	0x26	38
32	0x22	34
33	0x36	54
34	0xca	-54
35	0x95	-107
36	0x71	113
37	0x7f	127
38	0xec	-20
39	0xc7	-57
40	0xea	-22
41	0x46	70
42	0x16	22
43	0x16	22
44	0x8c	-116
45	0x07	7
46	0xf2	-14
47	0xfc	-4
48	0x4a	74
49	0xe2	-30
50	0xff	-1
51	0xc8	-56
52	0x7f	127
53	0xfb	-5
54	0xf0	-16
55	0x98	-104
56	0x71	113
57	0x07	7
58	0xbc	-68
59	0x98	-104
60	0x68	104
61	0xfd	-3
62	0xbc	-68
63	0x88	-120
64	0xbb	-69
65	0xab	-85
66	0xc2	-62
67	0xd3	-45
68	0xe1	-31
69	0xf3	-13
70	0xc6	-58
71	0xe7	-25
72	0x0e	14
73	0xea	-22
74	0xf6	-10
75	0x42	66
76	0x5d	93
77	0x4d	77
78	0x72	114
79	0x7f	127
80	0x7f	127
81	0x55	85
82	0x4b	75
83	0xfa	-6
84	0x37	55
85	0x1f	31
86	0xf0	-16
87	0xf7	-9
88	0x21	33
89	0x16	22
90	0xb8	-72
91	0xd7	-41
92	0x00	0
93	0x0f	15
94	0x08	8
95	0x15	21
96	0xde	-34
97	0x01	1
98	0xc2	-62
99	0xdf	-33
100	0x22	34
101	0x47	71
102	0xee	-18
103	0xff	-1
104	0x74	116
105	0x7f	127
106	0x04	4
107	0xf9	-7
108	0x22	34
109	0x1b	27
110	0xcb	-53
111	0xdc	-36
112	0x0e	14
113	0x00	0
114	0x7e	126
115	0x0c	12
116	0xfb	-5
117	0x66	102
118	0x66	102
119	0x7f	127
120	0x27	39
121	0x08	8
122	0x32	50
123	0x08	8
124	0xf3	-13
125	0x66	102
126	0xfb	-5
127	0xee	-18
128	0xf3	-13
129	0x1c	28
130	0x55	85
131	0xfd	-3
132	0xd6	-42
133	0x22	34
134	0x7f	127
135	0x23	35
136	0xca	-54
137	0xf3	-13
138	0x2d	45
139	0x27	39
140	0xa7	-89
141	0xc2	-62
142	0x1d	29
143	0xdc	-36
144	0xfb	-5
145	0xc6	-58
146	0x9d	-99
147	0x8c	-116
148	0xfc	-4
149	0xc9	-55
150	0xa5	-91
151	0x82	-126
152	0x69	105
153	0x5e	94
154	0x23	35
155	0xd2	-46
156	0x7f	127
157	0x52	82
158	0x44	68
159	0x34	52
160	0xfd	-3
161	0x10	16
162	0xb8	-72
163	0x96	-106
164	0xfd	-3
165	0xed	-19
166	0xab	-85
167	0x81	-127
168	0xf4	-12
169	0x06	6
170	0xbb	-69
171	0xa7	-89
172	0x14	20
173	0x08	8
174	0xe1	-31
175	0xd2	-46
176	0x7f	127
177	0x4e	78
178	0x0e	14
179	0xac	-84
180	0x45	69
181	0xed	-19
182	0xe2	-30
183	0xa7	-89
184	0x26	38
185	0xd9	-39
186	0xe1	-31
187	0xd3	-45
188	0x40	64
189	0x06	6
190	0xf3	-13
191	0xc5	-59
192	0xeb	-21
193	0x81	-127
194	0xd4	-44
195	0xf6	-10
196	0x5b	91
197	0xa4	-92
198	0x27	39
199	0x1b	27
200	0x58	88
201	0x02	2
202	0x49	73
203	0x35	53
204	0x30	48
205	0xc1	-63
206	0xfc	-4
207	0xe2	-30
208	0x2a	42
209	0x2a	42
210	0xf5	-11
211	0x02	2
212	0x31	49
213	0xe2	-30
214	0x81	-127
215	0x39	57
216	0x0e	14
217	0xcf	-49
218	0xc2	-62
219	0xf8	-8
220	0x1b	27
221	0x0a	10
222	0xbf	-65
223	0x7b	123
224	0x0a	10
225	0x25	37
226	0x29	41
227	0x49	73
228	0xce	-50
229	0x9e	-98
230	0xe9	-23
231	0xdc	-36
232	0xd3	-45
233	0xae	-82
234	0xcc	-52
235	0xd0	-48
236	0x7f	127
237	0x18	24
238	0x0f	15
239	0xef	-17
240	0x0e	14
241	0x84	-124
242	0xf4	-12
243	0x45	69
244	0x14	20
245	0x81	-127
246	0x39	57
247	0x3c	60
248	0xcc	-52
249	0x9c	-100
250	0x50	80
251	0x2a	42
252	0xf6	-10
253	0xb5	-75
254	0x32	50
255	0x28	40
